dtection_net/detectionModel/FastestDet256.onnx (onnx, 953774 bytes, 140 tensors)

760 f4 [24, 3, 3, 3]
00000000: a9f7 1dbe ef41 d4bd b56a f3bd df2d abbd
00000010: 2291 77bd d18a 4bbd 0015 05be 925b d6bd
00000020: 67d6 b2bd 6a7f 2ebe 1335 f4bd 128e 07be
00000030: 93f6 31be ab92 1dbe ebff e3bd 0d9a 4fbe
00000040: 8a1d 29be 77dd 05be 5887 893e 6952 3e3e
00000050: 5e01 5b3e 59b7 8b3e e8a3 2f3e e2d4 303e
00000060: 0f36 b13e 8883 883e 42f7 583e 2054 fe3e
00000070: 2d1b 8ebe 4f0a 9bbe 8a3a 8fbe 5608 2fbf
00000080: 5f1e 193e a979 a6bc 036d fe3d a7c6 203f
00000090: 4a52 573f 1960 77be 607e d9be af39 a7be
000000a0: 1c22 8ebf d6b9 24be e16f a1be 9b70 703c
000000b0: 7d2c 7f3f 5015 593f 8edc 283e f033 d6bd
000000c0: 66ae 46bc 1657 54bf 4012 a5be e6c7 9abe
000000d0: 83f1 4abe 5a18 1b3f 9ec7 a03e 4c3d a23e
000000e0: f5c5 b73e 2f07 6d3e 2106 ee3d da04 503e
000000f0: bea5 a23e c2e3 4a3e 30df 753e 724b f3be
00000100: 37f8 efbe 9c4e aabe b642 fdbe 3a23 12bf
00000110: a1d7 bcbe 2669 b0be b324 dfbe bcdf 8dbe
00000120: 8031 703d 152f 4d3e 4a95 343c 91e8 933e
00000130: 6116 d83e 1975 143e e52a aa3d 6cd1 e63d
00000140: 804c e6bc 01e5 32be a655 93be fd14 13be
00000150: 6518 78be a158 b2be ec62 4dbe 27dc bebd
00000160: 8c6b 32be 125f 2cbd 3cb6 cb3e 6476 b93e
00000170: 1cd3 803e a734 b23e 09f3 ab3e 6e0d 7a3e
00000180: 8d81 933e b182 843e 90dd 4f3e 190b 08be
00000190: 41c9 c5bd be1d 1ebe 406f cfbd bff6 cf3b
000001a0: 55c3 95bd 099d 3abe f026 c9bd d331 1abe
000001b0: 36b4 df3e 7130 74be 117d 2ebe 6d1f cb3e
000001c0: af68 d2bb 53e8 69be 5534 ae3e c4c0 38bc
000001d0: c210 73be 8793 4a3f ea8b efbe 43ec 15bf
000001e0: 87f1 3a3f 1f48 19be b3c1 18bf 4e19 1b3f
000001f0: 2708 babd 79af 08bf ef4e 3c3f 4cb2 dabe
00000200: cc98 edbe 9b2e 243f dd87 1abe 7fc4 ecbe
00000210: 3598 323f b3ab a5bc 790b f2be b2ca 9d3c
00000220: 84e4 d63d 1f5d 333c f347 d63d f6a4 e93d
00000230: b01e a03d 9734 6d3d 39cd dd3d db2b b73d
00000240: 4232 7d3d 20b0 ed3d 4b40 543d 357f 053e
00000250: a1c3 c93d 8637 9b3d 195f 213d 3463 633d
00000260: c7a6 323d 4349 8f3d adb2 133e c97a e63d
00000270: 4b4b d63d 038c dd3d 7ada e33d 224d 73bc
00000280: e5d3 893d ce63 8d3d 7229 d0be 024a 3d3c
00000290: bd30 f13e 2dbb 00bf 9a55 63bd 90ca 063f
000002a0: 0131 0dbf 0937 b8be 4087 0a3f 909e 11bf
000002b0: 2272 713c e966 523f 0f5a 21bf 4548 e7bd
000002c0: e797 5b3f 1c85 13bf 09c5 e9be ac54 503f
000002d0: d550 92be 6678 93bc 8a81 103f 098d 8abe
000002e0: ae6f 2fbe e3a2 043f bf91 95be fbe7 e7be
000002f0: bfa6 113f 6c3e 333e 5572 863e bee8 db3d
00000300: b153 65bd cc2c 223e 3ecc 2d3e 40a4 16bd
00000310: 3f97 cf3d eb75 a83e e27b 463d 5f80 32bc
00000320: 0ea3 44be 0047 e33d c32f d53b fe12 1abd
00000330: d259 693e 52b6 05bd c4ed d63d d543 353e
00000340: b682 f03d ddd9 85be 063d dd3d 73fa 563d
00000350: 4616 f5bc 51dd 723e 7388 1e3c 8a62 353e
00000360: 46fd a0bd fc58 9cbe cf21 25be ff96 fc3d
00000370: 7920 bdbd 1254 ccbe cabc 113e 7e6f dc3e
00000380: 977a 3a3e 9d8e 54be 4d52 23bf bd29 00bf
00000390: 365e a33e f109 5ebd 5d4a f8be 7011 fa3e
000003a0: 5189 543f e609 fb3e 4974 debe fb93 6fbf
000003b0: fe01 6fbf c45b c03e f23b 14be ea79 33bf
000003c0: ef83 6d3f f591 893f 13d8 2f3f 42ef 71bf
000003d0: b21e 133d 8a2f af3e 8a67 673d ec6b 5b3f
000003e0: 5eec f93d 94df 433e 8f2b 443e 7ea8 31bf
000003f0: 0473 91bf 28ab 543e 483b 853e 7ba9 263e
-0.15426506 -0.10364138 -0.11885587 -0.083583586 -0.060441144 -0.049692933 -0.12996292 -0.104666844
-0.087323 -0.17040792 -0.119241856 -0.1323779 -0.17379217 -0.1538798 -0.11132797 -0.2027361
-0.16515175 -0.13072763 0.26861072 0.18586124 0.2138724 0.2728832 0.17152369 0.17268708
0.34611556 0.2666285 0.21188071 0.49673557 -0.27755108 -0.30281302 -0.2797435 -0.68372095
0.14952992 -0.020321684 0.12423136 0.6280312 0.8410994 -0.24157752 -0.4247923 -0.32661197
-1.1104159 -0.16086516 -0.3153067 0.014675285 0.9967726 0.84798145 0.16490385 -0.10459125
-0.012126541 -0.8294538 -0.32240486 -0.30230635 -0.19818692 0.6058403 0.31402296 0.3168739
0.35893217 0.23147272 0.11622263 0.2031435 0.31767076 0.19813445 0.2401092 -0.47518498
-0.4686906 -0.332631 -0.4946496 -0.57085 -0.36883262 -0.34455222 -0.43582687 -0.27709758
0.058640957 0.20037492 0.011021921 0.28888372 0.42204574 0.14497794 0.08308963 0.11270413
-0.02811265 -0.1747017 -0.28776282 -0.14363475 -0.24228056 -0.34833243 -0.20057267 -0.093193345
-0.17423838 -0.042082854 0.3978747 0.36223137 0.25161064 0.34805796 0.3358386 0.24419186
0.28809777 0.2588096 0.20299363 -0.13285483 -0.09657527 -0.15441033 -0.10128641 0.006346553
-0.07312647 -0.18223967 -0.0982188 -0.15058069 0.43692178 -0.23846604 -0.17039897 0.39672413
-0.0064211707 -0.22842531 0.340243 -0.011276428 -0.23736861 0.7913136 -0.46786433 -0.5856363
0.7302479 -0.14968918 -0.5967056 0.60585487 -0.09083586 -0.5339275 0.73557943 -0.42714155
-0.46405637 0.64133614 -0.1509089 -0.46243665 0.697635 -0.020223474 -0.47274378 0.019261692
0.10492805 0.010947495 0.10462942 0.11408417 0.07818353 0.05791148 0.10830159 0.08943912
0.061815508 0.11605859 0.051819127 0.13036807 0.098517664 0.0757895 0.039397333 0.05551453
0.043616083 0.069963954 0.14423628 0.11253888 0.1046358 0.10817721 0.111256555 -0.014849933
0.06729869 0.06903802 -0.4065662 0.011553289 0.47107497 -0.5028561 -0.055501558 0.52652836
-0.551529 -0.35979488 0.54112625 -0.5688257 0.014736684 0.8218828 -0.63028044 -0.11293081
0.8577866 -0.57624984 -0.45658138 0.813792 -0.28577295 -0.018001746 0.5644766 -0.27060726
-0.17132446 0.51811045 -0.29212758 -0.45294175 0.5689506 0.17504281 0.26259103 0.107377514
-0.055988017 0.15837401 0.16972443 -0.036777735 0.1013627 0.32902464 0.048457988 -0.010894864
-0.19202825 0.110975266 0.006505938 -0.03761577 0.2278817 -0.032644577 0.10494569 0.17701657
0.11743681 -0.2614278 0.10802655 0.05248494 -0.029917847 0.23717238 0.009676087 0.17713371
-0.07860808 -0.3053664 -0.16126178 0.12333488 -0.09234709 -0.3990789 0.14232174 0.43053812
0.18210827 -0.20757528 -0.63797456 -0.5006369 0.31907815 -0.0542087 -0.48494235 0.4884143
0.8302203 0.4903099 -0.43448094 -0.93585175 -0.93362415 0.37570012 -0.14475992 -0.701079
0.9277944 1.0747668 0.6868908 -0.94505703 0.035917945 0.34215957 0.056495227 0.8571155
0.122032866 0.19128257 0.19157241 -0.69397724 -1.1363225 0.20768416 0.2602179 0.16275589

761 f4 [24]
00000000: 63fc f53e ac33 813f f98a 243f e83b e33e
00000010: 413a 24bd d08b 7dbd 7887 77bb 243f dabf
00000020: 12ff 633d 4054 c73b 03fd 133e 7055 88ba
00000030: 9f1f 223f 0129 813f ae19 bf3c 1c78 13bb
00000040: 8402 5f3f 58d5 273f 5cc3 d03b 3082 babc
00000050: e8bc df3d 9072 0240 a0ec e1bb ce59 aa3c
0.48044118 1.0093894 0.64274555 0.44381642 -0.040094618 -0.061900914 -0.0037769955 -1.7050519
0.055663176 0.0060830414 0.14451985 -0.0010401439 0.633295 1.0090638 0.023327675 -0.002250201
0.87113214 0.6555991 0.006370945 -0.022767156 0.10924703 2.0382423 -0.006894663 0.020794775

763 f4 [24, 1, 3, 3]
00000000: 0510 1dbe 2edb e13c 1871 20bd 7994 5abf
00000010: 5d96 3abe 11b8 673f 2f32 85bf 4899 a2be
00000020: 0296 703f b1cc 1f3d 9f26 cbbb 3607 033c
00000030: 45d3 763d 4f30 bd3c fa17 a43b 3f25 983d
00000040: d158 d53c da8e 14bd 8b81 7abd d29d bb3d
00000050: fc93 fabd ca48 8fbd 6478 dc3d 0614 b13e
00000060: 7851 c4be f5db 613e fca7 b03f df2d 113e
00000070: af40 d43d c6be d8bd d724 3d3f b67e 8e3e
00000080: 3d60 87be 9cea 913f 34c1 053f 5499 f4be
00000090: bb67 c53c d821 993d eef1 2cbc 7b76 113d
000000a0: 5bd9 313d 619d bebd caf8 fc3c 0922 f0bd
000000b0: 0905 8fbe 6c96 4fbd 1ee8 5e3c f27c 313d
000000c0: 0075 08bf ce78 643b 3e2a dd3e d20c 03bf
000000d0: 0c18 88bd d62e 0e3f 109a c3bc da94 003d
000000e0: 5d81 2abd 53d5 1b3d 64ca 923c 7ae7 d3bd
000000f0: 61b4 a63b 21fc 5fbd 98bf 68be df8f 333e
00000100: bf4d 313f 61ff 543f eae5 01bf 3ab9 783e
00000110: 75b2 573f 5af5 33bf d207 123f d55e 843f
00000120: c8f4 213c d522 69bd ea68 db3b e00e a0bd
00000130: 0ebe f5bc e48d c43d be17 83bd 339c d5b9
00000140: c891 873e 4f6f 23bc af7a 19bd 2e9a 32bc
00000150: 7934 a6ba 1945 dbbc 6c35 a5bc 575c b53b
00000160: 02da 8eba ba0d adbc e448 a2bd d0fd 86bd
00000170: 47c8 9d3d 7719 afbd b141 ebbe 1211 d6be
00000180: e8e9 d23e 717b 36bf 75df a5bf 5031 93aa
00000190: 0110 c3aa 4bad dfaa a6e9 54aa f3d4 2daa
000001a0: 0c4c 912a 5923 96aa 4afc b92a e7f5 cf2a
000001b0: 4175 f1bc fdbb b7bd 1dcb 1a3e 8235 49be
000001c0: d140 afbe d0d1 86be 1c0a 66be c51b a8be
000001d0: 020d 49be 719b 38bd 3620 97bd 642b a3bc
000001e0: 1151 5abd 0510 6dbd 7cd5 fabd b9cf 993b
000001f0: 0af4 67bd a45c 28be a8ca 193d ca58 b83d
00000200: 2652 983d 4afb 353d 1fb9 8b3d eb66 e7bd
00000210: 81eb 06bd c105 5fbd 9732 6fbe f27f f92a
00000220: d4a9 c928 e050 9daa b731 49aa 1133 e1aa
00000230: 8370 8628 b5d9 12ab b907 bc2a 5d91 b8a9
00000240: 218b 0d3d f87c 54ba 1adc 38bd 22be cb3e
00000250: ef5b 13be 4090 46bf 59d3 373f 8ffb f5bd
00000260: 65dd 8ebf b320 9abe 30e1 513d b8de 15bd
00000270: 0a88 06bf 264e 623e 7b24 593f 6a3c a2be
00000280: 0dde d33e 1206 703f 9dbe 0db9 f6ad d5bc
00000290: ee7d 9bbd 3a7a 8fbd 167c 46be 3b7a 83be
000002a0: 133f 2cbe f101 65be 4c36 9abe cfd9 503d
000002b0: 71b8 9c3d c23b 9c3d 1b9e 953d cded 5b3d
000002c0: 57f4 b5bd 99be ac3d 9451 25bd 624f 7dbe
000002d0: 1eac bd3d 5562 b0ba 792c 2fbd 203c 1c3e
000002e0: 7345 293d c1f8 0ebd f914 f43d 608a 903c
000002f0: fe4e 06bc a1d3 95bc 263f 1bbd f7ef c8bd
00000300: 17c5 013f c715 b7bc 55c0 08bf de01 ed3e
00000310: 5835 b9bc 5265 05bf c859 1c3d 79f9 b63c
00000320: ead7 edb9 34fb c43d 24b3 1a3c 22b0 bcbd
00000330: 1696 a93d 7227 98bd 7a6b 9abe abd8 4a3c
00000340: 27ff 4b3d 7cc1 923c 93a3 9ebb 99ee b03d
00000350: bfd5 c03d 0b64 dfbc 865a 9f3d a73f 323d
-0.15338142 0.027570333 -0.039170355 -0.853828 -0.18221422 0.9051524 -1.040594 -0.3175757
0.93978894 0.03901357 -0.0061996724 0.007997325 0.060260076 0.023094324 0.005007741 0.07428979
0.026043328 -0.036269046 -0.061158698 0.09160961 -0.12235257 -0.06996305 0.1076515 0.3458559
-0.38343406 0.22056563 1.3801265 0.14177655 0.103639 -0.10583262 0.7388434 0.27831048
-0.2644061 1.1399722 0.5224793 -0.4777323 0.024097314 0.07477158 -0.010555727 0.035513382
0.043420177 -0.093073614 0.03088035 -0.11725242 -0.2793353 -0.050680563 0.013605146 0.043332048
-0.5330353 0.0034862044 0.4319629 -0.5119144 -0.066452116 0.55540216 -0.023877174 0.031391956
-0.041627277 0.03804524 0.017918773 -0.10346885 0.005087421 -0.05468381 -0.22729337 0.17535351
0.69259256 0.8320218 -0.50741446 0.24289408 0.8425668 -0.7029625 0.5704318 1.034144
0.009885021 -0.056917984 0.0066958563 -0.07815337 -0.029997852 0.09597376 -0.06401013 -0.00040742903
0.2647841 -0.0099752685 -0.037470516 -0.010901017 -0.0012680433 -0.026766347 -0.020167075 0.0055346894
-0.0010898712 -0.02112471 -0.07924059 -0.0659138 0.077042155 -0.08549779 -0.45948556 -0.418099
0.4119408 -0.71282107 -1.2958819 -2.6146663e-13 -3.4650063e-13 -3.9733004e-13 -1.8910446e-13 -1.5439368e-13
2.5809942e-13 -2.666988e-13 3.3037662e-13 3.6941216e-13 -0.029474856 -0.08971403 0.15116544 -0.19649318
-0.34229138 -0.2633195 -0.22464794 -0.32833686 -0.19633868 -0.045070115 -0.073791906 -0.019918151
-0.053299967 -0.057876606 -0.1224775 0.004693952 -0.05662922 -0.1644159 0.037546784 0.0900131
0.074375436 0.0444291 0.068224184 -0.11298927 -0.032939438 -0.054448847 -0.23359142 4.4320065e-13
2.2389134e-14 -2.794492e-13 -1.7869635e-13 -4.0003463e-13 1.4925783e-14 -5.217175e-13 3.3400867e-13 -8.196458e-14
0.03455651 -0.000810578 -0.04513178 0.39793497 -0.14390539 -0.7756386 0.71806866 -0.120108716
-1.1161314 -0.30103073 0.051240146 -0.036589354 -0.5255133 0.22100124 0.8482129 -0.31686717
0.4138035 0.9375926 -0.00013517817 -0.026083928 -0.075923786 -0.07005735 -0.19383273 -0.25679192
-0.16820936 -0.22364022 -0.3011955 0.05098897 0.07652367 0.076285854 0.07305547 0.05369358
-0.08884495 0.08434791 -0.040361002 -0.24737313 0.092613444 -0.001345704 -0.04276702 0.15257311
0.041325998 -0.0349052 0.11918063 0.017644107 -0.008197544 -0.01828939 -0.03790202 -0.09811395
0.5069136 -0.022349251 -0.53418475 0.46290487 -0.022608444 -0.5210773 0.03817156 0.022335755
-0.0004536503 0.09618226 0.0094421245 -0.09213282 0.0828058 -0.074293986 -0.30160123 0.012380759
0.04980388 0.017914526 -0.004841277 0.08639259 0.09415769 -0.027269384 0.07780938 0.043517735

764 f4 [24]
00000000: 046a a83e fc54 1cbe 1081 64bf a921 86bf
00000010: 0da1 d93d 1673 a83d 75d2 163e f570 5abd
00000020: af35 99bd 6378 a53d 4c74 233f f962 cf33
00000030: 9a1d 823e 4916 d93e 675f 4a3d fe0e cc33
00000040: cb50 813f 9795 cabd 3956 863e 59d9 8cbc
00000050: 27cb 27be 86e0 be3e a2e0 fa3d e0c2 30be
0.32893384 -0.15266794 -0.89259434 -1.0479022 0.10626421 0.08225076 0.1472872 -0.05333038
-0.074809425 0.080796026 0.6384933 9.657192e-08 0.2541321 0.42399815 0.04940739 9.502217e-08
1.0102781 -0.09891813 0.26237658 -0.017193483 -0.1638609 0.37280673 0.122498766 -0.17261839

766 f4 [24, 24, 1, 1]
00000000: 5b91 43ba b5ef 2d3d 0170 c53a 9f1d d6b8
00000010: 02cd e0bc cc3b a0bc a4ad 113d 366b 11bd
00000020: e4ec f7bb 447b 5c3d f27e db3b cb1c 0eab
00000030: c63d 66be 048f 68bd f474 23bb bdd4 fdaa
00000040: fd4e 1ebd aebc 193e 033a 35bd cc85 1c3c
00000050: 0109 b33c 4435 e0bd 0312 66bb e01c 4abc
00000060: 7b00 ca3d 692d 113e c740 293d 3c0d f43c
00000070: 4e36 3e3b 427d 673b d803 5e3b 196b a03d
00000080: 6016 30bd 87e8 59bc 232a 723f 14cd 2e2c
00000090: 904f 1cbe e207 37be 2157 8fbc ba95 782b
000000a0: e7c9 3fbe 6d34 643d 3f32 7ebc 6b26 4f3c
000000b0: bd6b 9f3c 4910 33bd 8788 643d 78b4 8dbc
000000c0: 0fdd 303e 0dea 613d a6e8 033f ecba ae3d
000000d0: e692 053c bc01 1cbd a584 1e3d ac56 9abc
000000e0: 54c1 0fbd 39c8 843d bc08 e3be 7384 93ab
000000f0: 1b8d 083d 7994 b3bc 940e c93c 851d ffaa
00000100: 0e9b e3be 109c 7c3c 8edd af3d 046d 213d
00000110: 0c8c 87bd 0be0 003c 408d 743c 33e0 bcbd
00000120: 870a b3bd 5830 7dbe b3f1 c03d d4d3 5b3d
00000130: 0b41 983d d28f e53c 8916 663e 1f8a 593d
00000140: 117d 38bb c247 a33d 136e 0a3d c45f 9bab
00000150: 54d2 163e 9e33 003f 79db 12be ad69 d92b
00000160: 36e8 06bd bdc7 023e d70c 36bf e7a0 c6bd
00000170: a7a7 0abc 0e42 45bc b44e 253d 61e9 15bf
00000180: 5da4 863d 9fa4 b3bc a6cc b63c 25e8 3e3f
00000190: bb71 37bd e371 843d 1e72 933c 0c1e ddbb
000001a0: 458d 7cbc 8404 9cba eaed be3d ad1f 9f2a
000001b0: e7dc d63c 3cc0 b83c a108 133d 82a3 c2aa
000001c0: 0c0d 403d 22bb 453d edbb 55bd a7bb a23c
000001d0: 3cb5 49bd c4e7 ddbc b2fe 55ba 90de d1bb
000001e0: 9f34 ab3e 549c 1f3e 8df9 44bd 94de f0bd
000001f0: fd6c 0e3d 7ccd 473e e8be 7abd 6360 fe3d
00000200: f387 603c c046 cdbd 6ce0 503d 04f4 00ac
00000210: e8f6 33be ec48 8abe b87e 413e 3cf1 70ab
00000220: ee79 943d 6603 a5bb e3bf 7f3e 68b5 143d
00000230: f23b b8bd 05fa 053f d0cb 3abb 4830 623e
00000240: 10b2 083d 9eb8 243d 2c97 47bd 9397 0abd
00000250: c5a2 cf3b f417 4b3f f9c6 c0bd 7222 823e
00000260: 359c 773c 062c b8bd 8c1b 79bd 7af5 74ab
00000270: e40c 3fbc c891 b23d d5bc 2bbd f8a3 772b
00000280: 00a5 a6bd 0cc1 bbbc ea4d a6bc a8c2 29be
00000290: 3caa eabe 3712 9d3d bcaf 72bd b79e 17bd
000002a0: 6921 a3bc 012a f03d a7c3 57bd afa3 d03c
000002b0: bfd2 21be 53b8 3b3d 4b72 4b3d b0b1 74bd
000002c0: cdff 1e3e 8eda 133e 9e3f c6bd f15e 372b
000002d0: 8758 a2bd 15f6 80bd 086e 043e 500e bc2b
000002e0: 83ad 51bd 9a91 85bc b502 ddbe 3875 d43c
000002f0: 495a e03c 61ed bebd 0ce3 5abd fd3f d33c
00000300: 3fe7 80bd cbea 4a3c 9e3f 2d3f 7ec5 24be
00000310: 18cd b3bc 4015 c53c d8f4 883c 9929 173e
00000320: 883b ecbc ca93 b5bc dcaf a13d e337 c8aa
00000330: ce45 0fbd 9e6f 9cbc 2a39 1fbb c67e 78ab
00000340: d00c b03d 4b26 903d f187 64bc 59c7 b8bc
00000350: c5eb 533d f12c 983d aba6 ac3c 4dae a93b
00000360: 5808 133f b266 9c3c a196 8abe 28ab 2abe
00000370: 73cf 25bb 8de8 373d cdc4 1fbd 506f 7dbd
00000380: 0e19 6cba 67ba de3c 067e e83e 1a99 0c2c
00000390: 5de4 3a3c f8cb 63bd f90d 01be cc9d 07ab
000003a0: d7f4 6b3f 7c9b f7bd 3663 ad3c c8d2 fdbd
000003b0: 8595 0e3d 53fb 0ebd 0a03 45bd cbcd 1c3e
000003c0: f409 a93d f5c5 403e 1511 ad3c 4ddd 43bd
000003d0: 4b9c 3c3e fd06 393d d782 d83d 83b7 32be
000003e0: 044e 04bd d1fb 953d 2953 903d 0f25 81ab
000003f0: 4c91 9cbd b065 fabd b6d8 2ebd 288e 02ab
-0.00074603193 0.04246493 0.0015063287 -0.000102098325 -0.027441505 -0.019559763 0.035565987 -0.035502635
-0.0075660814 0.053828493 0.0066984827 -5.048849e-13 -0.22484502 -0.056777015 -0.0024941536 -4.5089445e-13
-0.038649548 0.15013382 -0.044244777 0.009553384 0.02185488 -0.109476596 -0.003510595 -0.012335986
0.09863373 0.14177479 0.041321542 0.029791467 0.0029024067 0.0035322462 0.0033876803 0.07832927
-0.04299009 -0.013300068 0.94595546 2.4840728e-12 -0.15264726 -0.17874101 -0.017497601 8.8315087e-13
-0.18729363 0.05571406 -0.015514909 0.012643437 0.019460553 -0.043716703 0.055794265 -0.017297968
0.17271827 0.05515485 0.5152687 0.08531746 0.008152699 -0.03808759 0.03870072 -0.018840156
-0.03509648 0.06483502 -0.443426 -1.048174e-12 0.033337694 -0.021921383 0.024543084 -4.5317583e-13
-0.44454235 0.015418068 0.0858718 0.039410606 -0.06618509 0.007865916 0.014926255 -0.0922245
-0.08742242 -0.24725473 0.094211005 0.053668812 0.07434281 0.02802268 0.22469534 0.05311024
-0.0028150717 0.07972671 0.03379638 -1.1039993e-12 0.14728671 0.5007876 -0.14341535 1.5448108e-12
-0.032936297 0.12771507 -0.7111334 -0.096986584 -0.008462823 -0.012039674 0.04035826 -0.5855923
0.065743186 -0.021929083 0.02231438 0.74572974 -0.044786196 0.06467035 0.017998751 -0.0067479666
-0.015414541 -0.0011903201 0.09322722 2.8266053e-13 0.026228381 0.022552602 0.0358969 -3.457478e-13
0.046887442 0.048274167 -0.052181173 0.01986487 -0.049245104 -0.027088054 -0.0008163258 -0.0064047053
0.33438584 0.15586978 -0.048089553 -0.117612034 0.034771908 0.1951198 -0.06121722 0.12420728
0.013704288 -0.1002326 0.050995275 -1.832535e-12 -0.17574656 -0.2700876 0.18895996 -8.559991e-13
0.07249819 -0.0050358055 0.24975543 0.036305815 -0.08995809 0.52334625 -0.002850283 0.2208873
0.03337294 0.040215127 -0.048728153 -0.03383596 0.0063365423 0.79333425 -0.09412951 0.25416905
0.015112926 -0.08992772 -0.060817286 -8.702688e-13 -0.011660788 0.08719212 -0.04192813 8.797958e-13
-0.0813694 -0.0229192 -0.020300824 -0.16578162 -0.45833004 0.0766949 -0.059249625 -0.037016597
-0.019913392 0.117267616 -0.052676823 0.025468675 -0.1580305 0.045830082 0.049669545 -0.05973977
0.15527268 0.14438841 -0.09680103 6.514642e-13 -0.079270415 -0.062969364 0.12932599 1.3362176e-12
-0.051190864 -0.01630478 -0.43166128 0.0259348 0.027386801 -0.0932262 -0.053439185 0.025787348
-0.06294107 0.012385081 0.676752 -0.16090962 -0.021948382 0.024057984 0.016718313 0.14761962
-0.02883698 -0.022165198 0.07894871 -3.5565916e-13 -0.03497868 -0.019096192 -0.0024295547 -8.8283233e-13
0.08596194 0.07038554 -0.013948427 -0.022555994 0.05173852 0.07430447 0.021075567 0.005178249
0.57434607 0.019091938 -0.27068046 -0.16666853 -0.0025300651 0.044899512 -0.039006043 -0.061873734
-0.0009006419 0.027188493 0.45408648 1.9980185e-12 0.011406985 -0.05561444 -0.12602986 -4.818062e-13
0.9217047 -0.12090203 0.021165472 -0.12393719 0.03481056 -0.03490765 -0.0480986 0.15312879
0.082538515 0.18825515 0.02112631 -0.04781847 0.18418996 0.04517268 0.10571831 -0.17452817
-0.032300964 0.07323421 0.070471115 -9.176287e-13 -0.07644901 -0.122264266 -0.04268714 -4.638256e-13

767 f4 [24]
00000000: 63fa 6c3e 1e11 b9bd 27ff 293e b7bd d23e
00000010: 8209 8a3e 89fa 833d b4d3 2bbc c06a 313e
00000020: 9d5c b13c 3a6b 4f3d fcff 403d cb06 893d
00000030: b90b 803e c273 853e 57b8 aabd 4bef 2c3e
00000040: 8bf4 dd3e 00f1 303e 9907 da3d 78cb 9bbd
00000050: 848e e63e 4a04 9bbd fc7c 213d b353 5b3e
0.2314239 -0.09036468 0.16601239 0.41160366 0.2696038 0.0644427 -0.010487486 0.17325878
0.021650607 0.05063937 0.047119126 0.06690749 0.25008944 0.2606488 -0.08335941 0.16888158
0.43350634 0.17279434 0.106459804 -0.07607168 0.45030606 -0.075691774 0.039425835 0.21418647

769 f4 [24, 24, 1, 1]
00000000: 8b94 b73d eb3e 6a3c beca f23d 65ad c43d
00000010: 35ac c23c 7326 5f3d 1d8d 943c 82bb 7b3d
00000020: b8ba 083c 8d93 053c 58c2 9c3c 5ee8 bd2a
00000030: 71fb 5e3d 1b2c 133c 5d8e 133b 7b81 35a9
00000040: ea7f 1c3e 147c a63d 13a2 123c 32d1 8a3c
00000050: 5f6c 33bb 1c11 fa3c 43e4 433c 7690 2139
00000060: 83ca 113d b884 02bd 893a 753c 2f07 b83c
00000070: 0ccc 913e abf7 ff3e 9c5f 353e 0ca8 133c
00000080: 2dce 6fbe ef43 60bc c348 583d 775f 8fab
00000090: 7b6b 253d 423e 423d aacf afbe 0aaa 4829
000000a0: 8ea6 b63d 4cfd 5b3d 0a64 b3bc e5bf a4be
000000b0: b75f 10be 8505 1e3e 987f 2c3e 6858 57be
000000c0: a99d a83d eb3c 3bbc 50d8 d73c 427a ddbc
000000d0: 3871 ec3d 05f9 1ebe c736 fbbe f7d9 6bbd
000000e0: e2c1 003d fe99 8bbd e7ed e33c ce60 602b
000000f0: 60aa e9bc b3b7 363c 54bc ae3c bcbc 232a
00000100: 0efd b2bb d58d 02be fa1b 0a3c 72d0 a93c
00000110: 79cf 733d 1be4 40be 7525 a4bd a840 793b
00000120: 6f59 3e3e 5fc5 e7be 31e3 d9bc 5b57 6e3d
00000130: f02c f73d 3163 5f3d f2f3 ce3d e0e5 47be
00000140: b84e bf3d 877a e1be 937e b9bd c33b 202b
00000150: 22ff ac3d cb95 8b3e 3c2a 1b3d e744 43ab
00000160: 1835 ce3d 55ee df3c c0c1 17be c058 c5bc
00000170: b605 ddbe 787e ac3e 330e 693e 7d4a eebe
00000180: 1836 9fbe c196 02bc a350 45be 82b7 30be
00000190: cdbe 8cbe b150 57bb 6a24 89be 0362 b3bd
000001a0: 7e84 e03c 4981 a2bd 3e21 53be e746 702b
000001b0: bbc0 b7bd c299 17bd 4e8d e33d edb6 b62b
000001c0: 4207 cdbe 07ec 0fbe 4747 0cbd 36d6 803d
000001d0: a847 28bc d814 5a3d 1c43 44be cbcd 4d3d
000001e0: bea7 11be b23e 993a 7017 48be 2409 1fbe
000001f0: ef91 67bc 82e4 61bd 7c63 2fbc a55b bcbd
00000200: aaeb bcbc 3577 3ebc d11d 82bd 677d eb29
00000210: 49f4 9cbd cf5d 46bc ef88 5ebc 7111 b529
00000220: 3e57 5bbe 3e65 0ebe d5b4 2fbb 9bee 28bc
00000230: 9f22 22bc e781 1fbd ee8e 89bc b5d5 a9bc
00000240: fb97 333d 9395 3c3e 73e5 a5b9 9e62 903d
00000250: c8b1 8dbe af9f ae3e a6e1 a3be 1647 453d
00000260: 751d 71be 25d2 523e fb46 833d 31a5 0b2b
00000270: 0861 26bc df4f ebbe 317d 49be 13bd a62b
00000280: 7076 a03d d9ef 193e 1a51 193e 6c89 03be
00000290: 3f81 a63e e29b 1d3e 4c7f c3be e67d 833e
000002a0: 7947 913c d571 413e b7a7 803d d4e2 6a3d
000002b0: 1a79 cbbc 6442 14bd abd1 dfbc 922c cb3d
000002c0: da1e 9abe 2298 3f3e aeff 6fbd 6aac 44ab
000002d0: 7400 083e 1e5b 53be 9132 8bbe 2761 2b2b
000002e0: fe12 bf3c f714 7d3d 2d62 ca3d 8273 87be
000002f0: 5924 143e 3c61 0c3e b9a1 41bd d76b 343e
00000300: ea71 0cbd 03f9 8cbd 1ef3 f4bb aec8 e9bc
00000310: b76a fbbe 1216 f2bd e2e8 1c3e 1b45 83bd
00000320: 1cdd cebc 8448 79bd 4a54 a03b 67eb 27ab
00000330: 5781 b6bd ff74 8dbd 2cff ad3d 370f a1a7
00000340: a143 07bd 84ad b33d 78d5 c23d 8019 463d
00000350: 6abd e5bd c14b 6dbd 92af 1dbd 8227 23bc
00000360: 1a46 b13c 078e 0b3e 7013 873d bad7 cf3c
00000370: a9f1 94be 51c5 173e 5832 b7be b78f df3d
00000380: 1f3f 8d3d 9f20 e0bc 6301 6aba 1570 47ab
00000390: 8dbb 103d 079c 763d bb2f e13d 76d0 b9aa
000003a0: 10de c43c 48cb 983d c469 69bd de22 153e
000003b0: f8f2 2c3c c774 653e fcdc 94be b5a8 20bc
000003c0: 04c9 bd3d 80b1 203d 7de5 1cbd 7ae3 c43d
000003d0: 7f22 063e 3774 973d 4ee9 adbd a412 c83c
000003e0: 753b 443e f65b bb3d 29de 453b 05c2 642a
000003f0: c05e af3d 91fb a83c 58e7 28be 9e16 92ab
0.08963879 0.014297227 0.11855076 0.09603385 0.023763755 0.054480027 0.018133694 0.06145812
0.0083452985 0.008152855 0.01913564 3.3734381e-13 0.054439012 0.0089826835 0.0022515275 -4.030238e-14
0.1528317 0.08129135 0.008949774 0.016945455 -0.0027377827 0.030525737 0.011956277 0.00015407972
0.03559352 -0.03186485 0.014967569 0.022464363 0.28475988 0.49993643 0.17712253 0.0090122335
-0.23418494 -0.013688072 0.052803766 -1.0187258e-12 0.040385704 0.047422655 -0.34338123 4.4556406e-14
0.089184865 0.05370836 -0.021898288 -0.32177654 -0.14099012 0.15431793 0.16845548 -0.21029818
0.08233196 -0.011428098 0.026348263 -0.027035836 0.11545032 -0.15524681 -0.4906523 -0.057580914
0.0314349 -0.06816481 0.027823402 7.971513e-13 -0.028523624 0.011152196 0.021330036 1.4542789e-13
-0.0054622954 -0.12749417 0.008429522 0.020729277 0.059524033 -0.18837015 -0.08014957 0.0038032923
0.18588804 -0.4526777 -0.026597591 0.058188777 0.12069118 0.054537956 0.101051226 -0.19521284
0.09341186 -0.44038793 -0.09057345 5.6926355e-13 0.084471 0.2726272 0.037882075 -6.937354e-13
0.100687206 0.027335325 -0.14820004 -0.02409017 -0.4316842 0.33690238 0.22759323 -0.46541205
-0.31095958 -0.007970513 -0.19269042 -0.17257503 -0.2748932 -0.0032854492 -0.26785594 -0.087589286
0.027406927 -0.079348154 -0.2061815 8.5363525e-13 -0.08972307 -0.03701187 0.11110936 1.298265e-12
-0.400446 -0.14054881 -0.034247663 0.062908575 -0.01027099 0.053242534 -0.19166225 0.050245088
-0.14224145 0.0011691658 -0.1954019 -0.1553083 -0.014133914 -0.055149563 -0.010704871 -0.09197167
-0.023061592 -0.011625101 -0.06353343 1.045785e-13 -0.07663781 -0.012107327 -0.013582452 8.04104e-14
-0.21419999 -0.13905808 -0.0026810665 -0.010310794 -0.00989595 -0.038942244 -0.016791787 -0.020731786
0.04384611 0.18416433 -0.00031642205 0.0705006 -0.276747 0.34106204 -0.32008094 0.048163496
-0.23546393 0.20587976 0.06410023 4.961197e-13 -0.01015497 -0.45959374 -0.19676663 1.1847488e-12
0.0783509 0.15032901 0.14972344 -0.12845391 0.32520482 0.15391496 -0.38183057 0.2568199
0.017734276 0.1889108 0.06281989 0.057345226 -0.02483802 -0.036196128 -0.027321657 0.099206105
-0.30101663 0.18710378 -0.058593445 -6.987246e-13 0.13281423 -0.20640227 -0.27187017 6.088623e-13
0.023324486 0.06178757 0.09882007 -0.26455313 0.1446699 0.13708967 -0.04727337 0.17619263
-0.034288324 -0.06883433 -0.007475271 -0.028538074 -0.49104854 -0.11820616 0.15323213 -0.06409665
-0.025251918 -0.060860172 0.0048928605 -5.9657005e-13 -0.08911388 -0.06907081 0.08495936 -4.4702973e-15
-0.03302348 0.0877333 0.09513372 0.048364162 -0.112177685 -0.057933573 -0.038497515 -0.00995815
0.021639872 0.13628398 0.06595504 0.025371421 -0.29090622 0.14821364 -0.35780597 0.10916083
0.06896805 -0.027359305 -0.0008926598 -7.0854547e-13 0.035335112 0.060207393 0.10995432 -3.300725e-13
0.024031669 0.07460648 -0.05698563 0.14564082 0.010555975 0.22407828 -0.29074848 -0.009805848
0.09266856 0.039231777 -0.038304795 0.096137 0.13099097 0.07395213 -0.08491765 0.024422951
0.19163306 0.091483995 0.0030192232 2.0317782e-13 0.08562994 0.020627769 -0.164945 -1.0380201e-12

770 f4 [24]
00000000: 4574 abbe 4e7a f0be 6e29 043f 43ab 2bbe
00000010: cbbb 853f 9a4a 903f 67f0 43be 8e00 2b3e
00000020: 67ca ec3e 007c 8cbe a0d3 c7be 0a78 bd3e
00000030: 3a8a a93e 842f b8be 10f8 3dbf 3528 a53f
00000040: 7911 a83e 54fe 09bd 2a2e 9cbe e0b1 c43e
00000050: af59 ce3d 7df8 fb3f ccf5 023f 38e7 b1bc
-0.33487144 -0.4696831 0.51625717 -0.1676455 1.0447935 1.1272767 -0.19134675 0.1669943
0.4624817 -0.27438354 -0.39028645 0.37005645 0.3311327 -0.35973752 -0.7420664 1.2902895
0.3282583 -0.03368981 -0.3050397 0.38416958 0.100756995 1.9685208 0.51156306 -0.021716699

772 f4 [24, 1, 3, 3]
00000000: a373 74be 78d7 e33f 2cdd 1bbf 4476 96bf
00000010: 363e 43be 3f1f aac0 0fff d3bd f0c8 3940
00000020: b611 fa3f 176e 07be 8b7d adbe c0d1 5dbe
00000030: b586 8fbe 5a36 0fbf c57c d4be f6c7 dfbd
00000040: 8807 c6be 4f32 3fbe f41c b23e 755f 913e
00000050: 4532 b03e f9ef 443f d384 2d3f 7c6a 663f
00000060: a04b d73e ede1 3b3f 987f 3e3f 4ee9 743e
00000070: f68e 8d3e c9b1 713e b492 7e3e a89f 083f
00000080: 2df9 d43e 2501 453e a29e b53e 2936 933e
00000090: 94af 53bd 2c9c aa3f 7e1d 02bf 1f14 f0be
000000a0: 55d4 963f aa90 b5bf 7ce3 42be c0c5 8d3f
000000b0: 7819 94bf 4af1 ed3e 3591 c0bf 2521 2f3f
000000c0: 509e c03e 4967 6dc0 f4dc 203d e8d9 413f
000000d0: 0773 8abf 5896 e83f c0a3 36be 5738 bbbe
000000e0: c201 aebe 500e 4ebe 3ef1 b2be 51a2 e1be
000000f0: c82d 1bbe 4280 5dbe b553 ddbe 7d12 59be
00000100: ee8a 8dbe c753 4fbe f941 3abe f7bc d1be
00000110: 72a1 b2be 87c3 52be 2d86 a6be 09e2 c0be
00000120: 97b6 73be 2356 d5be 3817 0cbf eb3e 13bf
00000130: 14be 80bf 71bd 5fbf ad28 03bf 793f 45bf
00000140: 0841 2cbf 3f1e 163e 2562 823e 5acb 2a3d
00000150: 97d4 993e f53f 033f 774f b63e de4b 1c3e
00000160: f3e4 f23e 848d 873e 0573 54be 69ca a8be
00000170: 71cd e7be 25d0 37be fc59 f2be f9f4 0abf
00000180: 2b6a 40be f264 edbe c812 bcbe 156c 803e
00000190: 82f6 1c3f 1c7f e23e ef73 b53e 87bf 683f
000001a0: 6cb2 773f 4f2c be3e 3624 813f 1bee 0b3f
000001b0: 8021 ae3e 37df 8c3f 3334 8fbd fa05 663f
000001c0: f9db 7c3f 692b 64bf b062 903e 420b eb3d
000001d0: a111 b1bf e695 f2bd 7a06 87be 2ffd b0be
000001e0: 7966 5cbe 94ee 27bf 9c6f 6abf 5305 36be
000001f0: 3e10 03bf 6748 4fbf 5e33 06be f922 9fbe
00000200: 4e19 bcbe cf56 1cbd 03b9 12bf b4c5 36bf
00000210: 5b6f 95be 3d01 11bf e89e 2bbf a2dc 223e
00000220: 93ef 4e3d 4d60 0b3f d450 95be 655b e9bf
00000230: 9e17 a7bf 85f0 e03e 2939 d23e 38e9 603f
00000240: b210 2f3e 3d5d 9c3e e545 333e 992d 743e
00000250: af51 f63e 4d92 d03e da21 233e 981d 9e3e
00000260: d14f e03e a484 43be e0a6 c9be 7ccd 0bbe
00000270: d4a4 63be 8a8d 05bf 995d 0cbf 8eeb f03b
00000280: 6c30 b2be fa05 11bf 55dd 8a3e ec48 87be
00000290: cbc2 eabe 4e77 e83c dda2 3abf 87eb debf
000002a0: 008f 8bbe 96ee 0bc0 973c 44c0 ce43 d1bd
000002b0: 7507 a4be b368 2abf b64a 15be 4fe2 38bf
000002c0: ce57 54bf ceb7 26bd 674c 1cbf 4dd2 debe
000002d0: 357c fabc 93cf 23be 2165 53be 7374 4dbe
000002e0: a386 ebbe 174b d5be 8f5f 84be 2802 d0be
000002f0: dc99 a3be 719a c6bd 7229 88be 4f90 89be
00000300: 0f1c a2be dbf7 debe d322 0abf 5eb5 39be
00000310: 49f1 eabe 169a 29bf 5c40 42bf 2a3d 10c0
00000320: 93e5 d0bf bff7 cfbd 6072 b4be 97ab c3be
00000330: 3719 783f dd1c 3440 aa86 0040 1575 df3b
00000340: 590b 32bd 7e69 41bd a25b 263e 779e 793f
00000350: b0e7 793f 8cba 9b3e 2c4e a43f 208d af3f
-0.23872237 1.7800131 -0.60884356 -1.1754842 -0.190667 -5.316314 -0.10351383 2.9028893
1.9536655 -0.1322559 -0.33884844 -0.21662045 -0.2803246 -0.5594231 -0.41501442 -0.109268114
-0.3867762 -0.18671535 0.34787714 0.2839314 0.34413353 0.7692867 0.677808 0.9000623
0.42049885 0.7339161 0.7441344 0.23917124 0.27648133 0.23602976 0.2486065 0.53368616
0.41596356 0.19238718 0.3547259 0.28752258 -0.051681116 1.332891 -0.5082625 -0.4689035
1.1783549 -1.4184773 -0.19032091 1.1075974 -1.1570272 0.4647315 -1.5044314 0.6840995
0.37620783 -3.709429 0.039273217 0.75723124 -1.0816354 1.8170881 -0.17835903 -0.3656642
-0.33985716 -0.20122647 -0.34949678 -0.4406915 -0.15154183 -0.21630958 -0.43227926 -0.21198459
-0.27645057 -0.20246802 -0.18189229 -0.4096448 -0.34888798 -0.205824 -0.32524243 -0.3767245
-0.23800121 -0.4166728 -0.5472293 -0.5751788 -1.0058007 -0.8739844 -0.5123394 -0.77049977
-0.6728673 0.14659975 0.25465503 0.041697837 0.30045006 0.51269466 0.35607502 0.15263316
0.474403 0.26475155 -0.20747001 -0.32966927 -0.45273927 -0.17950495 -0.47334278 -0.5428005
-0.187905 -0.46366078 -0.3673308 0.2508246 0.6131364 0.44237602 0.35440013 0.9091725
0.96756625 0.3714318 1.0089176 0.54660195 0.34009933 1.100562 -0.06992378 0.8985287
0.9877315 -0.8912874 0.28200293 0.11476757 -1.3833505 -0.11844997 -0.2637213 -0.34568164
-0.21523465 -0.65598416 -0.9157655 -0.17775469 -0.5119666 -0.8096985 -0.13105533 -0.3108137
-0.36738056 -0.038168725 -0.57313555 -0.7139542 -0.2918652 -0.56642514 -0.67039347 0.15904477
0.050521445 0.5444382 -0.2916323 -1.8231016 -1.3054082 0.43933502 0.41059235 0.87855864
0.17096213 0.30539885 0.17507131 0.23845519 0.48109195 0.4073662 0.15930882 0.30881953
0.43810895 -0.19093567 -0.39385128 -0.13652605 -0.22230846 -0.52169096 -0.5483032 0.007352299
-0.34802568 -0.56649745 0.27121988 -0.26422822 -0.4585174 0.028377201 -0.7290476 -1.7415627
-0.27257538 -2.1864371 -3.066198 -0.10218011 -0.3203694 -0.6656601 -0.14579281 -0.7222032
-0.8294648 -0.040702634 -0.6105408 -0.43519822 -0.030576805 -0.15997152 -0.20644046 -0.20063953
-0.46001157 -0.41658852 -0.25854155 -0.40626645 -0.31953323 -0.09697426 -0.2659412 -0.2686791
-0.31662032 -0.43548474 -0.5395939 -0.18135592 -0.4588721 -0.6625074 -0.75879455 -2.2537332
-1.632006 -0.10154676 -0.3524351 -0.3821685 0.96913475 2.8142617 2.0082192 0.006819377
-0.043467853 -0.047219746 0.16245893 0.97507423 0.9761915 0.3041576 1.2836356 1.3714943

773 f4 [24]
00000000: e19f 173e d3ef b13e 8f5a e0be a10e 4ebe
00000010: 48c8 213d 8202 733f b993 d03e dae3 293f
00000020: 5fab af3e caeb fcbe 6683 2d3e 6faa 96be
00000030: 3b03 cdbe 1809 7f3e 5e1e 7d3e 074a b93d
00000040: f395 48bf b26f 373e 93a2 863f e306 ec3e
00000050: b4b0 f63e 4a3d 153f 3a22 3bbe 0b50 83be
0.14807083 0.34753284 -0.4381909 -0.20122768 0.039497644 0.949257 0.40737703 0.663633
0.34310433 -0.49398643 0.16944656 -0.29426906 -0.40041527 0.24905813 0.24718615 0.09047323
-0.78353804 0.17913702 1.0518364 0.46099004 0.4818169 0.58296645 -0.18274775 -0.25647005

775 f4 [24, 24, 1, 1]
00000000: 86ef c73b 0eec b7bc 51df 403d 71dd 063d
00000010: d2e3 72bc fd6f 31bd 8f0c 73bd 55a3 34bc
00000020: a876 1bbd 56fe b63d b8f9 d93d 6395 d33b
00000030: fb75 1a3c 6132 4abd 73b6 0dbb b959 46bc
00000040: f9e6 2f3d d017 43bd 2136 2c3e 8551 bfbd
00000050: 9c48 a7bc f5f3 35bd 9175 0e3d 8fb4 3a3d
00000060: 48b2 a43a e9a6 6ebc e0ce 13bd 17e0 3abc
00000070: c22f c9bc ada6 f8bb a446 0d3d a8ff e53c
00000080: d2ce 8e3d 64fe 553c a7f7 2f3e 1ce3 f03d
00000090: f223 753c cac9 5c3d 0867 96bd 652a ae39
000000a0: e1e1 8ebd 9921 ddbc bcc6 7abd a812 b53d
000000b0: 330c a63d 6443 1a3d 2553 13bf 5ad6 c63c
000000c0: b2d5 82be 3d0c c2bc 9e35 993e 8a69 ed3b
000000d0: fd21 5b3e 79ea d1be ceb6 0e3e a516 b1bd
000000e0: e7b6 5dbe 908b ccbd d453 af3d f3a2 20be
000000f0: 64b8 153d 69ac be3d 00b3 fb3c c34c 99bd
00000100: afc0 813b 47c9 7e3d d3a6 11be 6194 6ebd
00000110: 3e55 163e 1570 cc3d caa6 0c3d 6a98 c93d
00000120: d812 d23d 139c fe3c bc6b 953d 7aa9 a8bd
00000130: 93c8 bdbd 9196 a6bd e3d2 b6bd 1c32 e93d
00000140: bbe3 b6be a54e 5b3e d26c 773e d9cb 353c
00000150: ce6c 623c 57a3 23be e20f 04be 66f8 fbbc
00000160: 79c7 d6bd 8897 fb3c 89c8 293e e34c 1fbe
00000170: 75f2 d0be d1df bc3d ccc6 3f3e bf25 13bc
00000180: b9a4 41bc bf6a 223e 81fd 30bc 1ca7 883e
00000190: 524f 71bc efe3 2e3c b428 8d3e ab38 923e
000001a0: cd0a 5fbd e04b 2a3e 431a 57bd 65c0 cf3c
000001b0: 668f 80be de07 ffbd 9468 b9bd 39ee 4b3d
000001c0: 818d 823e e14a ab3e 2bc3 66bd 2d09 a63d
000001d0: 18c5 8ebe b22b 4f3d c78d 8ebc b9fa f3bc
000001e0: c3f1 8cbc 1298 443e 02ca 4dbd 0754 aebc
000001f0: 6e25 033d 1880 4a3c 0e12 57bd e986 5b3e
00000200: f56f 3c3c 7a69 bf3d ebbd 8d3e 0665 28be
00000210: b443 033d d9e8 903a c9ad c73c 3f27 e13c
00000220: 0d36 a9bd f20f a83d 33d1 53bb 06d3 8abd
00000230: df86 0dbe c119 dcbd 33c3 563d 329c c9bc
00000240: 8ba1 d13e a432 f23d fef4 ff3d e7ae 35bd
00000250: 1a14 4abe a35b 99bc afe0 433b ec9c 853d
00000260: a651 0cbe 04fb 413d 88cf e4bc d7cd 823d
00000270: 497d 5b3c 6903 efbd a81e 843a 099c f8bd
00000280: 3b75 6ebd 1e5c b23a ec51 dc3d d89a 20be
00000290: 8c49 af3c 1f22 893d f6f2 b13c 2cc1 07bc
000002a0: cedd 82be e8ff c33d 9c66 eb3c df19 81bd
000002b0: a00e 1d3e 3613 873e b53b 0abd c288 693c
000002c0: 8f78 debd e62b e73c 2d49 39be 02bf 853e
000002d0: be4a 4fbd 1dc3 ad3d c8bf 4dbd 791a f83e
000002e0: 0f0e 3abd 414b e9bc 418c ae3d 6680 10be
000002f0: 69cc c1bd aac2 023e 5471 d5bd b588 aabd
00000300: 8042 ba3c 435e 2fbd a62a bfbc 6b42 813e
00000310: ed6b 10bb 8a70 023c fba8 953e 4fa5 d33e
00000320: 3ed3 c2bc a138 33bd 6a41 ce3c ff86 37bd
00000330: 3e88 783d e8aa bdbd fe90 86bc 7450 983c
00000340: df02 e83e bbff 9d3e c8b1 02bd e133 713d
00000350: d302 10be 063a e53b b201 77bd 5890 2cbd
00000360: f78f 893d ec0b d03d 8957 c5bd 799d d83d
00000370: 80f3 18bd 5857 fabc 8850 153d 181a e5bc
00000380: f0b2 ddbd c70e 583e b61b fcbd c881 c6bd
00000390: 1a71 803d 5084 c6bc 26ac 85be 0884 fabc
000003a0: 294d 9f3d 6896 84bd 4713 823d 0831 f4bc
000003b0: 828e 773d 92ff 433e 9b99 6ebc 0233 14be
000003c0: 4a38 47bd e1c1 05be 803e 073d 45dc 5b3c
000003d0: 7115 adba eabd 1cbd 95b5 90bd ff4f 24bc
000003e0: 75fa 153c 2181 543b 6522 3d3d 66d0 393c
000003f0: b906 963b be6a bebd 84c6 bcbd e4bf 443d
0.0061015515 -0.022451427 0.04708797 0.032926027 -0.014824824 -0.04331969 -0.05933815 -0.0110252695
-0.037954956 0.089352295 0.10643333 0.0064570173 0.009427543 -0.04936445 -0.002162364 -0.0121063525
0.042944882 -0.04763013 0.16817524 -0.093417205 -0.020420365 -0.04442211 0.03478009 0.04558235
0.0012565339 -0.014566162 -0.036085963 -0.011405966 -0.024558906 -0.0075882287 0.034491196 0.028076008
0.069730416 0.01306114 0.17184316 0.11762068 0.014962183 0.05390338 -0.073438704 0.00033219453
-0.06976677 -0.02699356 -0.061224684 0.08841449 0.081077956 0.037661925 -0.57548743 0.024272133
-0.25553662 -0.023687476 0.2992372 0.0072452473 0.21399684 -0.409992 0.13936922 -0.08646897
-0.21651803 -0.09987557 0.08560911 -0.1568716 0.0365528 0.093102284 0.030725002 -0.07485344
0.0039597373 0.06220367 -0.14223795 -0.058246974 0.14680955 0.099823155 0.03433875 0.09843524
0.102575004 0.031080281 0.07295939 -0.0823545 -0.09266772 -0.08134187 -0.08926942 0.11386511
-0.3572062 0.2141672 0.24162605 0.011095964 0.013819886 -0.15980278 -0.12896684 -0.030758094
-0.10487265 0.030711904 0.16580404 -0.15556674 -0.4080998 0.09222377 0.18728179 -0.008981167
-0.011819058 0.15861033 -0.010802628 0.26689994 -0.014728384 0.010674461 0.27570117 0.2855886
-0.05445366 0.16630507 -0.05251528 0.025360296 -0.25109404 -0.124526724 -0.0905315 0.049787734
0.25498584 0.33455566 -0.05633847 0.08107219 -0.27884746 0.05057878 -0.01740159 -0.02978264
-0.017205125 0.19198635 -0.050241478 -0.021280302 0.032018118 0.0123596415 -0.052507453 0.21438183
0.011501302 0.0934629 0.27683958 -0.16444787 0.03204699 0.0011055722 0.02437486 0.027484534
-0.082622625 0.08206166 -0.0032320737 -0.06778531 -0.1382098 -0.107471 0.05243225 -0.024610613
0.4094356 0.11826065 0.124979004 -0.044356253 -0.1973423 -0.018720454 0.002988856 0.06524071
-0.13703021 0.047358528 -0.02793099 0.06386917 0.0133965695 -0.11670572 0.0010079937 -0.12139136
-0.05821727 0.0013607775 0.10757813 -0.15684068 0.021397375 0.06695961 0.021722298 -0.008285802
-0.2555985 0.095702946 0.028735451 -0.06303763 0.1533761 0.26381844 -0.033748347 0.014253797
-0.108628385 0.028219175 -0.1809432 0.2612229 -0.05060839 0.084844805 -0.050231725 0.48457697
-0.045423564 -0.028478267 0.08522845 -0.1411148 -0.09462816 0.12769571 -0.10422006 -0.08326856
0.022736788 -0.042814504 -0.023335766 0.25245985 -0.0022036985 0.007961402 0.29230484 0.41337058
-0.023782369 -0.043755177 0.025177676 -0.044806477 0.060676806 -0.092611134 -0.01642656 0.01859305
0.4531469 0.3085917 -0.031907827 0.058887366 -0.14063577 0.0069954423 -0.06030435 -0.042129844
0.06716912 0.10158524 -0.09635837 0.105769105 -0.037341595 -0.030559227 0.036453754 -0.027966544
-0.10825145 0.21099387 -0.12309973 -0.096927226 0.062715724 -0.024233013 -0.261079 -0.030580536
0.07778389 -0.06474 0.06351333 -0.029808536 0.06043864 0.19140461 -0.01456299 -0.14472583
-0.048637666 -0.1306224 0.03301859 0.013419216 -0.0013205243 -0.038267054 -0.07065884 -0.010028838
0.009153952 0.00324256 0.04617538 0.01134119 0.004578438 -0.09297703 -0.09217551 0.048034564

776 f4 [24]
00000000: 81f0 ee3e 029c 693e a9a3 743e 07ce dbbc
00000010: d0e1 243f 8152 be3e 8c84 663e 7918 063c
00000020: 6406 27bd 6e1d 8a3e 4e84 373f 4b4a ebbc
00000030: 51a9 323f b397 e13c a05d f53e dedc 793e
00000040: 7561 8d3e b2f4 4fbe e3d2 b03e 8f8e bd3e
00000050: e75d 0f3f cfaa 113e f1ee 243e ddae 993d
0.46667865 0.22813419 0.23890556 -0.02683164 0.6440706 0.3717232 0.225115 0.008184546
-0.04077758 0.26975578 0.71686256 -0.02872195 0.69789606 0.027538156 0.47922993 0.2440066
0.27613416 -0.20308188 0.34535894 0.37022826 0.5600266 0.14225315 0.16106774 0.07504056

778 f4 [24, 24, 1, 1]
00000000: 6774 3b3d 3845 113d 0e5d 7e3d b3d4 433c
00000010: 5688 053d 904b 56bc 8da2 843d 358c a4bd
00000020: db79 d13b 2bb0 44bb 9add 843d f50b 143e
00000030: 18fb c53c cdfc 143e 07b4 3a3e 6307 43be
00000040: ca7d 9dbe 4aec 3cbd 86fc 103e 067b b73d
00000050: 27ff 8f3e 40f1 a2be b616 bd3d 57ff b33d
00000060: 4e1d a4bd 3612 0cbe af2c dabe 0877 433d
00000070: bdda c5be 8534 0e3e 39a7 4abf a625 8bbe
00000080: 6533 a3be 9578 a13e ea34 a83d 08e1 813e
00000090: 8d36 fdbd 1ec3 cabd f4a2 953d d563 e3bd
000000a0: 7f3b a83d c6f3 85bd d0d3 86bd cd07 46bd
000000b0: c02a 043d ee7b 51bd bfef 07be 6940 333d
000000c0: 47b1 cc3e 74fc ae3a 0be5 b13c 3f04 b2bd
000000d0: 897a 383e 5dd8 94bd bad6 51bc 0259 14bf
000000e0: 45ea 0e3d 04fa 96bd d45f 7c3c d937 273d
000000f0: 8a10 2ebd 26ed bfbd fa82 2dbd 17f3 b13b
00000100: 592a 5c3c 8ccf ffbb 4719 d13c 98ed d43c
00000110: 6c2b 92bd c971 a9bb b395 31bd 4ab1 0a3c
00000120: ebd0 febd 072b 0ebe 3bd4 1a3e 5fc6 a63e
00000130: d4c7 78be cf9c c8bc a509 083a 5fb4 dfbd
00000140: 3c09 053e ce4b 273c e3f8 f63c c54c d0bd
00000150: 1f4c df3d 43e2 89be e918 f83d cfee 423e
00000160: 7ac2 a9be 0daf bfbc 20e4 9cbe 5dd6 003d
00000170: 8509 803d b7c8 04bf 29ae b5bd af80 7fbd
00000180: 6141 d03d 7ea1 4bbf 3bd3 aa37 85fe cabe
00000190: f7e5 abbd 63d7 183d b0da 063c 84ed 243e
000001a0: a2ff 68be 78fa 75bc a00f 2ebe 524c 023e
000001b0: f6d6 3e3d d52a 4f3d c054 b939 d329 02bd
000001c0: f5ea aabe 3d84 863a ab5a 893e 9b48 01be
000001d0: af78 4c3e ce8d 24bd 2a6c 2dbe 959e 843d
000001e0: 9223 86be 5a73 d8bc 11d3 8b3c a2c8 4f3d
000001f0: 792f ef3c 527b 24bc 374e d03d 349c d03e
00000200: 7fdc 583d 432b 293b 28b2 623d a90e e8bb
00000210: 5d7e 01bd a70b 8d3c 4eb5 ceb9 cdb6 5abd
00000220: 79c8 3dbd b764 833c 51aa f33c cda4 11bd
00000230: 3f4b bd3c 0ebf a73d a60f dcbd cd61 e5bb
00000240: 5642 b33d 181f a938 fa38 0c3e dca4 80bd
00000250: 999f 413d edde 493e 603b a1bb 402b 8f3d
00000260: 7205 76be 5a2f a4be 5561 8dbd 01c2 4d3c
00000270: d890 083f d60f 8abd b320 95bd f976 3b3d
00000280: 1403 0c3e 3fd5 09be 6d3f 213e fe07 d2be
00000290: 757a e83c 93be f1bd df55 77bb d647 b9bd
000002a0: 5c9f 89be 9a8f 53bd 07f2 2b3e 2c35 8b3d
000002b0: d474 1b3e dfdb 90be 1830 b23d 5154 053e
000002c0: 7d6e 033e d196 37bc b856 c33c 138a 04bf
000002d0: abc9 99bc 78f5 aabd ed0b 853c e11b 13bd
000002e0: 0e24 62bd e1ec 893d 2fc8 63bd 9332 133d
000002f0: 2573 903d 67e2 9f3b f51b 6abd 856e 27bd
00000300: 5fa9 04bd 3ba2 c8bd 535a 8e3d e36c 27be
00000310: 9a89 263e 45ab 803e 4f02 90bd c5c7 f43d
00000320: c5c7 ec3d eb6a 9bbd a7ba 263e 9b5c a5bb
00000330: ec5a 823e 7bb5 96be 7c1b 793e f48a 79bb
00000340: 5bc5 863e af3f 8dbd 8cac 633e 964b d33e
00000350: 98d9 0cbe 1b50 863e 67cf 19bd 6f09 5a3d
00000360: f431 b23c 5535 52bd 1184 233d 0cd2 563d
00000370: d580 05bc 8194 493e 8d2e d13d 65c5 ba3c
00000380: cd66 fabe 155d a4be 3a5b 01be 16bb f2bd
00000390: 7176 e5be 9cf8 553c 4675 953d e56e adbd
000003a0: eace 1e3e 711c e4bd 83f8 cf3d 1d26 0e3e
000003b0: 6c02 b03d e023 90be da36 72bc 0e93 8bbe
000003c0: 95a2 253c db39 c73c 2bb5 2e3d 059e 253d
000003d0: 1fd2 483d 3d8d 973d d515 3c3b 1d96 e23d
000003e0: d22c 29be fd64 aabd d745 923d 7c91 10bd
000003f0: d0f9 05be d1d3 113e 4969 c2bc c79c 4f3d
0.045765307 0.035466403 0.062100463 0.011952567 0.032600723 -0.013079539 0.064763166 -0.08034555
0.0063927 -0.003001223 0.0648758 0.14457686 0.024167582 0.14549561 0.18232737 -0.19045787
-0.30760032 -0.04612378 0.1415883 0.08959012 0.28124353 -0.31824684 0.092328474 0.087889366
-0.08013402 -0.13678822 -0.42612216 0.04772094 -0.38643447 0.13887222 -0.7916141 -0.2717716
-0.31875148 0.3153731 0.082132176 0.25366998 -0.1236392 -0.09900497 0.073064715 -0.11103026
0.08214473 -0.06540637 -0.06583369 -0.048347283 0.032267332 -0.05114358 -0.1327505 0.0437626
0.39979002 0.0013350383 0.021715662 -0.08692216 0.18015493 -0.072678305 -0.012807542 -0.57948315
0.034891386 -0.073719054 0.015403707 0.040824745 -0.04249624 -0.09371404 -0.042361237 0.00543059
0.013437831 -0.007806724 0.025524748 0.0259922 -0.07137188 -0.005171035 -0.043355655 0.008465121
-0.12442192 -0.13883601 0.15120022 0.3257322 -0.24294978 -0.024488835 0.00051894254 -0.10923075
0.12991804 0.010210944 0.030147975 -0.101708926 0.10903191 -0.26930436 0.12114126 0.19036411
-0.33156186 -0.0233989 -0.30642796 0.031454433 0.06251816 -0.51868767 -0.08871109 -0.06237858
0.1016872 -0.7954329 2.0363941e-05 -0.39647308 -0.08393472 0.037314784 0.00823085 0.1610623
-0.22753766 -0.01501333 -0.16998148 0.12724426 0.04659172 0.050577957 0.00035349093 -0.031778168
-0.33382383 0.0010262799 0.26826987 -0.12625353 0.19967912 -0.040174298 -0.16935793 0.064755596
-0.26199013 -0.026422191 0.017068418 0.050728448 0.029197441 -0.0100391675 0.10171168 0.40744174
0.052944656 0.002581314 0.055345684 -0.0070818258 -0.03161465 0.01721747 -0.00039426464 -0.05339699
-0.046333764 0.016039236 0.0297443 -0.035557557 0.02310717 0.08190738 -0.10745172 -0.007000184
0.08752887 8.0643396e-05 0.1369361 -0.062814444 0.047271345 0.19713946 -0.004920408 0.06990671
-0.24025515 -0.32067376 -0.0690333 0.012558461 0.53346014 -0.06741302 -0.072816275 0.045767758
0.13673049 -0.13460253 0.15746851 -0.41021723 0.028378705 -0.11803927 -0.0037740392 -0.09046905
-0.26879394 -0.05165062 0.16791545 0.06797251 0.15181285 -0.28292748 0.087005794 0.13020445
0.12835117 -0.011205391 0.023845062 -0.51773185 -0.01877292 -0.08347601 0.016241038 -0.03591526
-0.055210166 0.06734634 -0.05561083 0.035936903 0.07053212 0.004879284 -0.05715557 -0.040876884
-0.032388087 -0.09796568 0.06950822 -0.1635013 0.16263428 0.25130668 -0.0703169 0.119521655
0.115615405 -0.07588752 0.1628214 -0.00504644 0.25459993 -0.29435334 0.2432689 -0.0038077207
0.26322445 -0.06896912 0.2223379 0.41268605 -0.1375488 0.2623299 -0.03755131 0.053231653
0.021752335 -0.051320393 0.03992087 0.05244641 -0.008148392 0.19685556 0.10213957 0.022799203
-0.48906556 -0.32102266 -0.12632456 -0.1185209 -0.44816926 0.013059761 0.07297759 -0.08468417
0.15508619 -0.11138237 0.10154822 0.13881727 0.08594212 -0.2815237 -0.014783585 -0.2726063
0.010109563 0.02431958 0.042653244 0.040433902 0.049028512 0.07399986 0.0028699536 0.11063788
-0.16521004 -0.08320043 0.07142227 -0.035294995 -0.13083577 0.14240958 -0.023731844 0.050686624

779 f4 [24]
00000000: fbee 643e 908f e63e 59e1 b83e 1cca 0c3f
00000010: 14fb e03e 3bbc ae3d 67c7 86bd e8b4 de3d
00000020: 0979 a1be 7088 7d3e 8b30 713e 0846 0ebe
00000030: 04ae ee3e b548 c1be b187 983e 5e76 313e
00000040: 7e46 61bd 7286 323e ac76 793d 37f5 0a3e
00000050: e868 723e 1300 de3e 1b4d c53e a027 5a3e
0.22356789 0.45031404 0.36109427 0.54995894 0.43941557 0.08531996 -0.06581002 0.10874349
-0.31537655 0.24759078 0.23553674 -0.13893902 0.46617138 -0.37750784 0.29791024 0.1733031
-0.054998867 0.174341 0.06090419 0.13570105 0.23672831 0.43359432 0.3853539 0.21304178
