dtection_net/detectionModel/FastestDet512.onnx (onnx, 953774 bytes, 140 tensors)

760 f4 [24, 3, 3, 3]
000000 4f f0 ef bd b2 dc a9 bd be ef e8 bd 52 da 9f bd
       -0.11715757 -0.082940474 -0.11373852 -0.07805313
000010 66 55 57 bd aa d9 9b bd 60 8c e2 bd fa c9 e1 bd
       -0.052571677 -0.076098755 -0.11061931 -0.11024852
000020 48 be ad bd 51 29 d7 bd 68 12 ab bd dd 85 03 be
       -0.08483559 -0.10505927 -0.0835312 -0.12844034
000030 16 c2 1a be b9 23 09 be 61 34 08 be cc ea 4e be
       -0.151131 -0.13392533 -0.13301231 -0.20206755
000040 c3 e8 29 be e8 00 05 be 99 74 82 3e 6d 64 41 3e
       -0.16592698 -0.12988627 0.25479582 0.18885966
000050 b4 9b 43 3e 74 a9 75 3e b2 d7 34 3e 68 b3 0f 3e
       0.19102365 0.23990422 0.17660406 0.14033282
000060 2d 44 8e 3e c0 28 71 3e 5d 16 4e 3e e5 94 0c 3f
       0.2778639 0.23550701 0.20125718 0.54914695
000070 9a ab 82 be 52 05 a2 be e2 4c 9d be 40 c3 33 bf
       -0.25521547 -0.31644684 -0.3072272 -0.702198
000080 3f d5 3f 3e 38 7d b4 bc fc f8 22 3e b6 0d 26 3f
       0.1873369 -0.022032365 0.15915293 0.6486467
000090 da c4 7b 3f c0 f3 3e be 56 3f d9 be f5 87 c9 be
       0.98347247 -0.18647671 -0.42431134 -0.3936154
0000a0 64 82 9d bf ac fa 35 be 8e 70 cc be 69 22 04 3d
       -1.2305417 -0.17771405 -0.39929622 0.03225938
0000b0 12 8c 8d 3f e4 7a 78 3f 8a e5 51 3e b0 da 05 be
       1.1058371 0.97062516 0.20497718 -0.13071704
0000c0 6e 80 e3 bc bb 9c 6e bf 61 74 d3 be 08 04 bb be
       -0.027771201 -0.932079 -0.41299728 -0.36526513
0000d0 87 e8 4a be 30 fa 17 3f cd cb 82 3e 5c d5 6f 3e
       -0.19815265 0.5936613 0.25546113 0.23421234
0000e0 f2 d1 82 3e c3 da 26 3e 4e 6f 8e 3d 1e ef 15 3e
       0.255508 0.16294388 0.069548234 0.14641997
0000f0 97 62 6f 3e 5b 70 31 3e 29 8a 4f 3e 46 51 aa be
       0.23377453 0.17328016 0.20267548 -0.33265132
000100 9f 90 b5 be 32 a3 75 be a4 54 c3 be 2d 8a e0 be
       -0.354619 -0.23988035 -0.38150513 -0.4385542
000110 cc b5 8a be 91 3e 8d be e2 d4 9c be 4d 7f 28 be
       -0.27091825 -0.27586797 -0.30631167 -0.16454811
000120 ad 76 8e 3d 2d 9e 32 3e 85 b6 0f 3a c9 1a 7d 3e
       0.06956229 0.17443152 0.00054822146 0.24717249
000130 0b 17 b8 3e 4b a0 e0 3d 5b 68 47 3d 33 1a e1 3d
       0.3595508 0.109680735 0.048683506 0.10991325
000140 e6 15 c5 bc 65 48 42 be f5 13 8c be bc 43 f5 bd
       -0.024058294 -0.18972929 -0.27358976 -0.1197581
000150 70 39 73 be b6 fc a0 be c1 f4 2f be 11 a7 ac bd
       -0.2375238 -0.31442803 -0.1718321 -0.08430303
000160 65 30 17 be 02 dd c7 bc f5 4f a8 3e 1d 7c 99 3e
       -0.14764555 -0.024397377 0.32873502 0.29977503
000170 1e f0 50 3e 53 09 9b 3e fe c0 96 3e 65 a8 46 3e
       0.20404097 0.3028055 0.29444116 0.19400175
000180 16 2e 7d 3e ed ad 51 3e 63 53 17 3e 66 58 b8 bd
       0.24724612 0.20476504 0.14777903 -0.09001236
000190 08 e0 46 bd 7a d5 d5 bd 95 5b 20 bd 7d b1 31 3d
       -0.048553497 -0.10441108 -0.03914984 0.043382157
0001a0 bb 11 27 bd c3 00 0a be 61 5e 97 bd 8d 4e 04 be
       -0.040788393 -0.13476853 -0.07391048 -0.1292059
0001b0 04 b2 09 3f 31 d3 80 be 92 bf 9b be a5 2c e2 3e
       0.53787255 -0.25161126 -0.30419594 0.44174686
0001c0 d8 f8 a1 3c bd cb a0 be 8c 9e e7 3e 87 70 a8 bc
       0.019771978 -0.3140544 0.4523815 -0.02056147
0001d0 35 1f bf be bc 8f 82 3f fb ba f8 be 74 91 42 bf
       -0.37328497 1.0200114 -0.48580155 -0.76003194
0001e0 03 91 67 3f 31 96 d1 bd 93 58 3a bf cc c9 53 3f
       0.90455645 -0.10233725 -0.72791404 0.8272979
0001f0 fa 3d 8d bd 84 08 34 bf 8a e2 62 3f c7 52 f8 be
       -0.06896587 -0.70325494 0.8862692 -0.48500654
000200 dd 56 23 bf fb 51 3b 3f d8 d9 2d be 45 3b 1e bf
       -0.6380442 0.7317197 -0.16977632 -0.6180919
000210 ae 25 5b 3f 0a 27 76 bd 36 ee 32 bf 7c a4 b6 ba
       0.8560437 -0.060095824 -0.6989473 -0.0013934518
000220 75 0a da 3d f6 94 0d bc 83 2c 99 3d 4b a6 dd 3d
       0.10646526 -0.008641472 0.07479193 0.108227335
000230 ee ff 52 3d 1b e3 63 3d 29 d5 03 3e 3c 26 70 3d
       0.051513605 0.055636507 0.12874283 0.058630213
000240 d4 54 65 3d eb 8a 0c 3e 5c d1 5b 3d ab 7c ca 3d
       0.0559891 0.13724868 0.053666458 0.0988706
000250 9c a8 c4 3d b3 7d 67 3d 39 98 0a 3d 25 06 a7 3d
       0.09602472 0.05651636 0.033836577 0.08155469
000260 8c fe c5 3c 48 45 8e 3d 25 10 22 3e a8 06 ed 3d
       0.024169229 0.06946808 0.15826471 0.11573535
000270 ac 40 9e 3d 4e 19 c4 3d 86 ae b7 3d bc 81 68 bc
       0.07727179 0.09575139 0.089688346 -0.014191087
000280 c8 7e c0 3d 2e 7a 89 3d 17 b6 e8 be 8e f5 91 3c
       0.093991816 0.06712757 -0.45451424 0.017817285
000290 41 6d 11 3f 5a 8c 0c bf f2 5e 2a bd 4b 27 12 3f
       0.56807333 -0.5490166 -0.041594453 0.57091206
0002a0 a0 2e 23 bf 3a f1 b2 be 8c 6b 27 3f 4a 8c 2d bf
       -0.6374302 -0.34949666 0.6539848 -0.6779219
0002b0 76 2a 85 bc d0 af 6f 3f d9 24 39 bf 06 9c 14 be
       -0.016255599 0.93627644 -0.7232185 -0.14512643
0002c0 21 02 68 3f 54 c7 32 bf 24 88 04 bf 14 82 66 3f
       0.9062825 -0.698354 -0.51770234 0.90042233
0002d0 91 81 b4 be 14 f4 48 bd a0 4f 26 3f f9 e5 95 be
       -0.352551 -0.049060896 0.6496525 -0.29277018
0002e0 df 4b 3e be 9d f8 0b 3f f6 94 b0 be 34 6e f5 be
       -0.1858363 0.5467623 -0.34488648 -0.4793564
0002f0 7a fa 24 3f af cc 89 3b 96 d1 43 3e 1e bf 64 3e
       0.64444697 0.0042053084 0.1912292 0.2233853
000300 54 7c 8b be 9e f4 03 3d 1e 2f 27 3e 1b 86 5f be
       -0.27243292 0.032215707 0.16326568 -0.21828501
000310 c8 c9 60 3d 47 16 a8 3e 1a 31 1b 3d 37 11 f5 3b
       0.054879934 0.32829496 0.037888624 0.007478859
000320 10 4d a4 bd 8b 0f 40 3e 56 8f 30 3c 07 98 b4 3c
       -0.08022511 0.18755929 0.010776361 0.022045149
000330 83 9b c1 3e db 65 13 3d b2 27 0e 3e 51 b1 2d 3e
       0.3781396 0.03598581 0.1388233 0.16962172
000340 01 11 e5 3d 95 bc 8b be 9c 8d 0c 3e be 15 92 3c
       0.11184884 -0.27292314 0.13725895 0.017832633
000350 35 69 36 bd 66 ed b7 3e 7c 85 b8 3d 96 39 5f 3e
       -0.044533927 0.35923308 0.09009835 0.21799311
000360 d4 a3 0e be fb 4c bd be ec 7a 3b be 08 33 14 3e
       -0.13929683 -0.36972794 -0.1830861 0.14472592
000370 28 f3 79 bd 1f ab c5 be 75 a0 0c 3e 6a e0 f0 3e
       -0.061022907 -0.38607118 0.13733084 0.47046214
000380 bb c4 81 3e 3b ad 93 be ab 98 46 bf 83 98 12 bf
       0.25345406 -0.28843102 -0.775767 -0.57263964
000390 5b 91 c7 3e e5 e0 1c bd c0 9e 02 bf 73 e8 05 3f
       0.38978085 -0.038300414 -0.51023483 0.52307814
0003a0 81 6c 5c 3f ab 42 0c 3f 82 5e 02 bf 1b d7 85 bf
       0.86103064 0.5478923 -0.5092546 -1.045627
0003b0 50 41 82 bf 09 86 ea 3e f7 de fe bd 8a 3a 3b bf
       -1.0176182 0.45805386 -0.12444871 -0.731362
0003c0 da a6 82 3f a0 6f 95 3f 54 9b 4e 3f 14 5f 83 bf
       1.0207169 1.167469 0.8070576 -1.026339
0003d0 a1 30 80 3d de 03 91 3e af cc d0 3d a4 e6 78 3f
       0.06259275 0.28323263 0.1019529 0.9722693
0003e0 3d 8f 43 3e 5c 46 70 3e ca 7d 80 3e 14 ca 44 bf
       0.1909761 0.2346434 0.2509597 -0.76870847
0003f0 f2 10 a6 bf 04 7d 85 3e 24 eb 67 3e 6d 53 4d 3e
       -1.2973921 0.26071942 0.22648293 0.20051356

761 f4 [24]
000000 ae 12 18 3f b4 ca 74 3f d8 0e 12 3f b2 b0 d9 3e
       0.594035 0.956218 0.570539 0.4251762
000010 1a 10 51 3d 00 f1 58 bc 23 cd d0 3c c0 ca de bf
       0.051040746 -0.013241053 0.025488442 -1.7405624
000020 4d 4d bd 3d 60 2c f2 bc 4b c4 f3 3d c6 40 8d ba
       0.092432596 -0.029562175 0.11902674 -0.001077675
000030 0c 8d 03 3f 0e 7c 80 3f 8e c9 35 3d f6 c1 18 bb
       0.51387095 1.0037858 0.04438167 -0.002330897
000040 1a 8f 54 3f 52 d7 de 3e 02 16 a6 3d 40 7a a4 3c
       0.83030856 0.4352365 0.081096664 0.020077825
000050 d2 f4 2e 3e f4 c2 ef 3f 34 77 5b 3d 8d 36 01 3e
       0.17085579 1.873137 0.053580478 0.12618466

763 f4 [24, 1, 3, 3]
000000 0a 69 7b be 03 04 d4 3c 82 2a 18 3d fe ad 93 bf
       -0.24551788 0.02588082 0.037149914 -1.1537473
000010 7b d8 a3 be 2c c0 a5 3f 83 d7 9a bf ee 5b e9 be
       -0.320011 1.2949271 -1.2097019 -0.4557795
000020 44 35 a8 3f 74 3c be 3d 99 8d 38 3c d3 0c a2 ba
       1.3141255 0.09288874 0.011264228 -0.0012363441
000030 d9 fa 37 3e 20 b3 e6 3d 2e f0 85 bd ec 08 85 3e
       0.17966785 0.11264634 -0.06539951 0.2598337
000040 ce af 3f 3e cb ef 6f be fb 87 cc 3c 28 72 21 3e
       0.18719408 -0.23431318 0.024967184 0.15766203
000050 22 3a 81 be 0f 02 0e bd cf 1a a3 3d e1 32 c6 3e
       -0.25239664 -0.034669932 0.07964098 0.38710693
000060 5c 17 0f bf f6 58 44 3e 52 ca de 3f f4 2c 2a 3d
       -0.5589502 0.19174561 1.7405493 0.041546777
000070 fd bd 99 3c 3e 03 b9 bd c1 ce 0e 3f 7a 01 87 3e
       0.018767351 -0.090338215 0.5578423 0.26368314
000080 91 f5 40 be 65 43 9d 3f e9 bd ed 3e 71 30 ba be
       -0.18843676 1.2286192 0.46433952 -0.36365083
000090 2c b4 64 bb 65 d9 40 3d 0c 43 84 3c be 40 32 3d
       -0.003489743 0.047082324 0.016145252 0.043518774
0000a0 3e be c8 3b 70 7c 37 bd fa 61 88 bb 7f 49 c5 bd
       0.0061261943 -0.044796407 -0.0041620703 -0.09633159
0000b0 b7 a6 7e be 51 e6 8e bc c8 6b 83 3c b9 ae 84 3d
       -0.24868284 -0.017443808 0.016042605 0.06478638
0000c0 f8 c2 34 bf a8 12 35 3d c4 0a 16 3f 38 38 42 bf
       -0.7061 0.044207245 0.5861018 -0.75867033
0000d0 41 19 b5 bd 69 1c 2e 3f 84 c5 86 bc dd 4a d5 3c
       -0.088427074 0.680121 -0.016451605 0.026036674
0000e0 b1 9a 43 bd 80 95 7a 3d 2d 41 12 3c 56 84 ce bd
       -0.047754947 0.06117773 0.008926672 -0.10083835
0000f0 96 42 bf bb fe 02 83 bd 94 1e 86 be a6 df 18 be
       -0.005836795 -0.06397055 -0.26195204 -0.14929065
000100 13 fc f2 3d 91 1a 8b 3e 46 99 30 be 77 54 b5 3e
       0.118644856 0.27168706 -0.17245969 0.35416004
000110 13 d3 4d 3f f0 08 dd be 21 8b 1e 3f 78 04 a1 3f
       0.804002 -0.4317088 0.61931044 1.2579489
000120 4d 2d 18 3d 9c 93 8b bd ba 8d f0 3c 98 6d ac bd
       0.037152577 -0.06815264 0.029364455 -0.08419341
000130 34 a4 71 bd a0 75 cc 3d 38 2c f9 bc 3a ce 82 3c
       -0.058994487 0.09983373 -0.030416593 0.015967477
000140 4b 04 b2 3e d0 83 5c bd a8 75 e1 bd ad 84 f2 bc
       0.347689 -0.053836644 -0.11008769 -0.02960428
000150 0b f2 c7 bc 46 c4 8d bd 51 48 ce bc 5c 83 9b bc
       -0.024407407 -0.06922202 -0.025180968 -0.018983535
000160 09 da 84 3c f4 11 a3 bd 00 62 03 3e 65 d8 6a bd
       0.016217249 -0.07962409 0.12830353 -0.057335276
000170 97 a9 d2 bd 06 d5 5d 3d 8e 6a a8 be b9 e3 ce be
       -0.10286253 0.054158233 -0.32893795 -0.40408114
000180 4a e9 9e 3e b4 cf 70 bf 25 9e e4 bf be fe 9d aa
       0.3103736 -0.9406693 -1.7860762 -2.8065565e-13
000190 fe 63 d1 aa 7e 17 f0 aa 00 91 64 aa ae 94 3a aa
       -3.7195241e-13 -4.2648865e-13 -2.0300775e-13 -1.6571702e-13
0001a0 09 f7 9b 2a 53 23 a1 aa 7e 9c c7 2a f8 24 df 2a
       2.7704946e-13 -2.8623856e-13 3.545809e-13 3.963841e-13
0001b0 29 89 b1 3d 16 39 06 be d1 c6 25 3b 9e b9 8d bc
       0.08668739 -0.13107714 0.0025295506 -0.017300423
0001c0 8c ae b9 be 73 81 b9 be bb cf ad bd b0 19 38 be
       -0.3626598 -0.36231574 -0.08486887 -0.17978549
0001d0 d8 84 97 be 05 1c ea bc 7d 43 5b bd ca 47 6e bd
       -0.2959354 -0.028577814 -0.05353116 -0.058173932
0001e0 fc 64 47 bd e0 6e c1 bd 08 2e 26 be 01 4d d9 bc
       -0.04868029 -0.09444976 -0.16228497 -0.026525976
0001f0 1a 76 9d bd 36 2f 0c be e1 c1 32 3d 8a e3 0c 3e
       -0.07688542 -0.13689885 0.04364193 0.13758674
000200 7c c1 f3 3c da 0d 6d 3d ea ab 91 3d 1a 6b 0b be
       0.029755346 0.057874538 0.07112868 -0.13615075
000210 0a 3a bb bc ae 51 51 bd 70 c0 a9 be 2b e1 05 2b
       -0.022854824 -0.051103286 -0.3315463 4.7563575e-13
000220 74 70 d8 28 eb d4 a8 aa fe ef 57 aa a3 a4 f1 aa
       2.4029586e-14 -2.9990536e-13 -1.91791e-13 -4.292444e-13
000230 f6 4b 90 28 64 a0 1d ab ac cc c9 2a d6 17 c6 a9
       1.6020154e-14 -5.600019e-13 3.5846792e-13 -8.797101e-14
000240 78 a8 d9 3d 7d 5e cd bc 67 cd fa bd a0 c4 05 3f
       0.10627836 -0.02506947 -0.12246209 0.5225315
000250 1f cc fe bd 00 aa 65 bf 2e 06 60 3f 64 39 34 be
       -0.12441277 -0.89712524 0.8750943 -0.17600018
000260 5a ae be bf c9 09 05 be 2d f9 3b 3e 5b dd 80 3e
       -1.4896958 -0.12992014 0.18356772 0.2516888
000270 f3 c9 e0 be de 8a 39 3e 98 23 81 3f 3a 55 c4 bd
       -0.43904075 0.1811938 1.0088987 -0.09586568
000280 b8 24 e6 3d d5 de 48 3f a3 8f 3a bd 03 ed 6f bd
       0.11237472 0.78465015 -0.04554714 -0.05857564
000290 94 8d 24 bd 14 69 9a bd aa c2 59 be 72 cb 6c be
       -0.040174082 -0.07539573 -0.21265665 -0.23124483
0002a0 92 18 a7 bd 0b c8 10 be b4 49 16 be 07 5a 4e 3d
       -0.08158983 -0.1413881 -0.14676553 0.050378826
0002b0 c6 c2 fc 3d 17 02 54 3d e1 92 00 3e 47 1e 07 3e
       0.123418376 0.051759806 0.1255603 0.13195144
0002c0 a7 7e cc bd ec cc c6 3d 91 95 44 bd be 7e d3 be
       -0.099850945 0.097070545 -0.0479942 -0.41307634
0002d0 3b 63 93 3c ad 8b 61 bc 5f 53 95 bb 41 31 a9 3d
       0.017991653 -0.013766211 -0.0045570577 0.082613476
0002e0 0b 06 38 3c fa 79 a4 bc 7a 90 8a 3d af 10 8f 3c
       0.0112319095 -0.020077694 0.06765838 0.01746401
0002f0 42 68 b9 3b 40 c4 00 3d 04 47 89 bd 38 63 97 bc
       0.0056581805 0.03143716 -0.06702998 -0.018479928
000300 a0 58 3d 3f d1 ae cd bd 7b ac 49 bf fc a9 2e 3f
       0.73963356 -0.10043109 -0.7877881 0.68228126
000310 46 7b 01 bd 17 51 4a bf 70 f5 22 bd 72 3e b7 3c
       -0.031611703 -0.79029983 -0.03978485 0.022368643
000320 cb ae 51 3d 80 bc d6 3d ba 71 7b 3b f7 2a be bd
       0.051192086 0.10485172 0.0038367347 -0.09285539
000330 c2 64 c8 3c 6e d8 6c bd 68 d2 be be 0f aa 28 3c
       0.024462108 -0.05782359 -0.37269902 0.010294451
000340 f7 35 f5 3c e6 67 53 3d 04 39 74 bb 41 4d ad 3d
       0.029932959 0.051612757 -0.003726543 0.08462001
000350 4c 30 cd 3d 86 14 05 3c ce 0b e2 3d bf 53 ed 3d
       0.100189775 0.008122569 0.11037408 0.11588239

764 f4 [24]
000000 11 5a d0 3e 73 4a b5 be 26 f9 87 bf 66 b1 76 bf
       0.40693715 -0.35408363 -1.0622909 -0.9636444
000010 57 5d bc 3d 09 09 1a 3e b0 71 f3 3d 58 ec 0f bd
       0.09197491 0.15042509 0.118869185 -0.035137504
000020 d5 ed fb bd d6 d3 6c 3e 4d da 0e 3f d8 cc d6 33
       -0.12301222 0.23127684 0.5580185 1.00024124e-07
000030 59 50 14 3e ff 96 ec 3e 77 eb 8f 3d 9f 5c d3 33
       0.14483775 0.4620895 0.07027333 9.842301e-08
000040 f3 73 97 3f 45 f7 86 bd 46 e8 85 3e c1 26 23 bc
       1.183226 -0.06590132 0.26153773 -0.00995797
000050 58 b8 94 bd fb 21 d3 3e 76 52 35 3e 5d ff 5b be
       -0.07261723 0.41236863 0.17707238 -0.21484132

766 f4 [24, 24, 1, 1]
000000 36 e5 e9 bc a1 f0 82 3d 75 ab a5 3c 54 c0 21 3c
       -0.02855168 0.063935526 0.020223359 0.009872515
000010 6f 6d a2 bc 6f 8c c1 3c 5a b1 77 3c 09 0f 0a bd
       -0.019827573 0.023626534 0.0151179675 -0.033705745
000020 2f aa 5f bc 98 dc 88 3d 16 29 83 3c 3c 48 3d ab
       -0.013651415 0.066827 0.016010802 -6.7246534e-13
000030 5c bf 76 be 92 6e c7 bd 20 53 82 3a 09 a8 28 ab
       -0.24096435 -0.097378865 0.0009942986 -5.9918785e-13
000040 72 51 dd bc f6 42 3d 3e cf ea 84 bc d2 79 43 3b
       -0.027016375 0.18482575 -0.016225247 0.002982725
000050 37 c3 03 3d 25 56 bc bd d7 de bc bc 88 65 f1 bb
       0.032168593 -0.09196118 -0.023055477 -0.00736684
000060 40 2c 65 3d 9d 68 0c 3e ee f6 09 bc 44 5c 99 3c
       0.055950403 0.13711782 -0.008420689 0.018720753
000070 30 44 72 ba d8 a9 41 bd ce 28 a3 3c e5 0f 32 3e
       -0.0009241728 -0.047281116 0.019916918 0.17388876
000080 ef 08 51 bd 97 4c 06 bb 4d 6f 86 3f 76 24 4e 2c
       -0.05103391 -0.0020492428 1.0502716 2.92946e-12
000090 f3 bc f8 bd fa c3 b1 bd 1b 3b 1c 3d 17 07 94 2b
       -0.12145414 -0.08679958 0.038142305 1.0518e-12
0000a0 de a2 39 be 36 48 ab 3d 2d be 57 3c a9 95 a4 ba
       -0.18128535 0.083633825 0.0131679 -0.0012556809
0000b0 5e c5 08 3d f1 61 df bc cc 42 4f 3c f4 db 17 bc
       0.03339135 -0.027268382 0.012650203 -0.0092687495
0000c0 af 6c 27 3e 9e c2 a6 3c 64 c0 b8 3e e5 da fb 3d
       0.16350053 0.020356473 0.36084282 0.1229761
0000d0 a9 a7 00 3d aa ad f9 3b f6 9b c0 bc 2a 5f d3 bc
       0.031409893 0.0076195793 -0.023511868 -0.025802214
0000e0 89 77 d7 bb 30 7b ce 3d 6f cf a7 be 8d 8f 8f ab
       -0.006575529 0.1008209 -0.32775447 -1.0200604e-12
0000f0 65 22 20 3b 34 b4 09 bd 0b a6 84 3d 15 54 fc aa
       0.0024434563 -0.03361912 0.06476983 -4.4822536e-13
000100 3b 99 f9 be df d3 e9 bb b6 29 a2 bc 1b b5 91 3b
       -0.48749718 -0.0071358527 -0.01979528 0.0044466383
000110 7b 76 ea bc 0f cc a4 bc df e9 63 3c df b8 69 bd
       -0.028620949 -0.020116834 0.01391074 -0.057061072
000120 f9 01 23 be ab e9 a1 be f4 be 7b bd 76 c8 02 3e
       -0.15918721 -0.31623587 -0.061461404 0.12771782
000130 1e 78 7d 3c ab d2 b9 3d e8 04 70 3e 93 ff 55 3d
       0.015470533 0.09073385 0.23439372 0.052245688
000140 d2 c0 8a 3d c9 34 4d 3d 57 95 49 bc 45 d6 a3 ab
       0.06775059 0.050099168 -0.012303672 -1.1641318e-12
000150 80 b2 5d 3e 47 02 ff 3e 7d c3 2b be 84 cc e8 2b
       0.21650124 0.49806425 -0.16773792 1.6541356e-12
000160 dc 60 36 bd 3e 68 27 3d e2 88 32 bf 91 31 9b bc
       -0.044525966 0.040870897 -0.69740117 -0.018944534
000170 6e 30 85 ba cc b5 fa bd dc c3 63 3d 9f 2f 0e bf
       -0.0010161528 -0.12241706 0.055606708 -0.55541414
000180 74 c1 a2 3d a7 c6 3c bd 5e ae 28 3d 4f a6 41 3f
       0.079470545 -0.046087887 0.041181915 0.7564439
000190 6d 18 90 bc 0a 6c 52 3c 99 b3 21 bc 4e ce aa 3b
       -0.017589772 0.012843141 -0.00986948 0.0052125817
0001a0 17 45 aa bc 90 9f 02 bd 85 3f 06 3e 45 41 bc 2a
       -0.020784898 -0.031890452 0.13110168 3.3440798e-13
0001b0 63 fa a4 3c 29 d4 2b 3d 1b 21 f5 3c f9 d5 da aa
       0.020138925 0.04195038 0.029923012 -3.8873052e-13
0001c0 1d 53 12 3d f1 9e 09 3d 8a b1 2d bd 37 88 85 3a
       0.035723794 0.033598844 -0.042405643 0.001018769
0001d0 ab 10 be 3c d5 15 9d 3b 39 b2 4b bc c1 51 f5 bc
       0.023201307 0.0047938623 -0.012432628 -0.02994621
0001e0 1f ca 6e 3e 64 92 1a 3e 13 43 2c 3d a0 3d 29 bd
       0.2331929 0.15094906 0.042056154 -0.041318536
0001f0 7f a1 ed 3a 68 74 9a 3e c8 e5 f4 bd 8d 29 b8 3d
       0.0018129795 0.30166936 -0.1195789 0.089923
000200 89 39 18 bd 58 a4 8f bd b7 21 1f bd 94 08 19 ac
       -0.037164245 -0.07013768 -0.038850512 -2.174737e-12
000210 57 fa 37 be 6a dc 3e be 15 37 27 3e 0b 58 94 ab
       -0.17966591 -0.18638769 0.16329606 -1.0540469e-12
000220 fd 32 8a 3c a7 44 5c b9 03 35 c8 3e 76 71 10 3c
       0.016870016 -0.0002100641 0.39102945 0.008816114
000230 45 70 5d bd 17 7e 09 3f 93 82 21 3c 44 d2 92 3e
       -0.054062147 0.5370802 0.0098577915 0.28676045
000240 35 48 0a 3d e8 a4 a3 3d cc ee c8 3c 7c 66 c3 3c
       0.03376027 0.07990438 0.02452793 0.02385258
000250 23 bc ba bb 1b d7 35 3f f5 8a 3a bd c6 d6 44 3e
       -0.005698697 0.7103135 -0.045542676 0.19222555
000260 b8 0c 75 bc 21 65 e8 bd 52 bc b8 bc 2f 4e 6b ab
       -0.014956646 -0.11347414 -0.022550736 -8.3597273e-13
000270 a5 b9 34 3d cc 3a a9 39 42 1f 4c 3b 70 e2 69 2b
       0.044122357 0.00032278 0.003114656 8.3092474e-13
000280 79 73 b9 bd 30 2c 00 3c 26 7b 8c 39 1c 0c 17 bd
       -0.09055228 0.007823035 0.00026794634 -0.036876783
000290 03 83 c6 be 60 bd 1a 3d 9b ac 04 bd 82 d3 12 bd
       -0.3877183 0.03777826 -0.032391172 -0.03584624
0002a0 f3 60 e0 bc 54 dc 2d 3e 0e c3 65 bd 12 50 0d 3d
       -0.027389979 0.1697858 -0.05609422 0.03450019
0002b0 f5 ec 19 be 7e 87 d1 3c 7b 99 8c 3d 24 d8 6b bd
       -0.15031798 0.025577303 0.068652116 -0.057579175
0002c0 c4 9f 15 3e b8 ee 52 3e 7f ad 8b bc 89 4f 51 2b
       0.14611727 0.20598876 -0.017050503 7.4362093e-13
0002d0 e8 8d 05 be 41 73 b8 bd 88 19 b8 3d da 78 d6 2b
       -0.13042414 -0.09006358 0.08989245 1.5239158e-12
0002e0 42 59 db bc 81 00 d9 bc fe c2 ec be bc 59 a1 3c
       -0.02677596 -0.026489498 -0.46242517 0.019696109
0002f0 9d c0 69 3d 3e 54 c1 bd da f3 01 bd dc d6 61 3b
       0.057068456 -0.09439896 -0.031726696 0.0034460342
000300 1a 7b 95 bd 89 ff 91 bd cd 75 23 3f d4 93 a3 bd
       -0.072988704 -0.071288176 0.63851625 -0.0798718
000310 2e 07 55 bc b9 06 4e bc fa 10 c0 3c e5 7a 20 3d
       -0.0130022 -0.012574845 0.023445595 0.0391797
000320 01 3e 23 3b 3e 0f 3a bd cc 64 75 3d 4a 58 e6 aa
       0.0024908783 -0.045424692 0.05991058 -4.091747e-13
000330 81 eb 67 bd ef 27 88 3d 8d 9a 80 bc 66 ee 7c ab
       -0.05662108 0.06648242 -0.015698696 -8.985923e-13
000340 05 b7 95 3d fe 56 eb 3c c0 5d a9 3b d8 26 1a bd
       0.07310299 0.028728005 0.0051686466 -0.0376347
000350 16 26 0d bd 93 bb 92 3c 48 ef 6f 3c f6 a3 d7 bb
       -0.03446015 0.017911708 0.014644451 -0.006580825
000360 68 76 1e 3f e0 c5 0f 3e a6 d6 97 be ba 9f 95 be
       0.61899424 0.14040327 -0.2965595 -0.29223424
000370 0b e2 9a 3d b6 bd e2 3d f9 50 bc bd 4c 7b f0 bc
       0.075626455 0.11071341 -0.09195132 -0.029355668
000380 06 67 de 3d 54 9e d2 3d 55 9e 29 3f e0 ef 46 2c
       0.10859494 0.10284105 0.6625722 2.827065e-12
000390 4a f7 1d be 02 76 34 be fa 78 a5 bc 36 20 35 ab
       -0.15426365 -0.17623141 -0.020199288 -6.434882e-13
0003a0 f1 f5 98 3f 9c 68 1f bd 38 23 2c 3e 02 36 a7 bd
       1.1950055 -0.038918123 0.1681031 -0.08164598
0003b0 8f 2c 8b 3d f7 ed e7 bd 6d 39 63 bc 4f ce ff 3d
       0.06795608 -0.11324685 -0.013868672 0.12490522
0003c0 30 c4 1a bc 0b 1b 5c 3e 66 88 ea 3b b0 7d 22 bd
       -0.009446189 0.21494691 0.0071573732 -0.039670646
0003d0 a4 d7 15 3e e2 45 00 3c a7 32 e9 3d 22 a3 db bd
       0.14633042 0.007829161 0.11386614 -0.107244745
0003e0 02 a9 9b bd 5e 3d 62 3d 49 6f fa 3c 50 a3 7c ab
       -0.07600595 0.055234306 0.030570643 -8.9755026e-13
0003f0 77 e6 02 be ae c7 1f be 53 5d 2b bc 9b 5d eb aa
       -0.12783228 -0.15603516 -0.010459262 -4.1809338e-13

767 f4 [24]
000000 10 c2 47 3e 91 de 01 bd 59 56 2b 3e f8 42 d0 3e
       0.19507623 -0.031706396 0.16732158 0.40676093
000010 23 5c 42 3e b3 21 84 3d ff 97 9d bc 15 73 52 3e
       0.1898046 0.0645174 -0.019237516 0.20551713
000020 5d 23 94 3d 32 98 83 bd c6 c0 90 3d 82 71 01 3d
       0.072333075 -0.06425513 0.070680186 0.03160239
000030 b9 ba 84 3e 10 6d 69 3e a8 36 fb bc 34 9a 01 3e
       0.25923708 0.2279551 -0.03066571 0.1265648
000040 f0 c5 e8 3e c3 fd d4 3d c1 b7 84 3d 27 f6 ee 3d
       0.45463514 0.10399964 0.06480361 0.116680436
000050 64 71 d5 3e d2 58 af bd 86 20 a5 3b 44 35 2b 3e
       0.41688073 -0.08561863 0.0050392775 0.16719538

769 f4 [24, 24, 1, 1]
000000 97 85 4f 3e e7 c7 05 3c 05 52 5a 3e b5 bf 49 3e
       0.20265804 0.008165336 0.2132035 0.19702037
000010 07 9b bc 3c d2 a9 05 3e c4 55 4a 3c ed 17 e9 3d
       0.023023142 0.13053063 0.01234955 0.113815166
000020 07 10 8c 3c 80 40 43 3c 18 85 4c 3d f6 f9 3e 2b
       0.017097486 0.0119172335 0.049931616 6.784845e-13
000030 e8 01 de 3d 3e 5d d0 3c 3b fa 22 3c ad 8b b6 a9
       0.10840207 0.025435086 0.009947355 -8.1066535e-14
000040 85 e3 86 3e ca a6 1c 3e de 09 8f 3c de 8b d0 3c
       0.2634546 0.15298 0.01746076 0.025457319
000050 3e 93 d0 3b 8e f9 ac 3d 7d 79 9c 3c 22 e6 0c bc
       0.006365209 0.08446036 0.019100899 -0.00859979
000060 c9 16 b5 3d e4 f4 d4 bc fe de 39 3d d3 ed e0 3c
       0.088422365 -0.02599568 0.045378678 0.027457153
000070 9d 1e 68 3e 00 cf f9 3e 8b a8 4e 3e b7 da 21 bc
       0.22667928 0.4879074 0.20181482 -0.009878806
000080 8a 09 84 be c3 25 2a bd 7d a1 8c 3d 3c 61 97 ab
       -0.25788528 -0.04153992 0.06866739 -1.0756183e-12
000090 f3 68 89 bc 46 3e 4e 3d 6b f2 9d be 21 f0 53 29
       -0.016773676 0.050352357 -0.30849013 4.705969e-14
0000a0 24 ef ce 3d f0 f0 51 3d d4 95 72 3b 51 bc ad be
       0.10104206 0.051255167 0.0037015574 -0.33932737
0000b0 27 2e 1f be 6a 31 f0 3d 46 11 3b 3e 60 82 47 be
       -0.1554495 0.11728175 0.18268308 -0.19483328
0000c0 50 b0 3c 3d f3 1a 91 ba 57 73 f0 3c 91 9f a4 bc
       0.046066582 -0.0011070654 0.029351873 -0.020095618
0000d0 bd f0 14 3e f0 23 4a be 85 b1 11 bf 98 92 a4 bd
       0.1454496 -0.19740272 -0.569115 -0.08035773
0000e0 88 28 1d 3d fe d1 9c bd bc 8a 9b 3c 03 c3 8a 2b
       0.03836873 -0.0765724 0.018987052 9.859616e-13
0000f0 d1 e0 01 bd e4 cd a8 3c 79 32 88 3c b0 7c 4a 2a
       -0.031708542 0.020605989 0.01662563 1.7984464e-13
000100 d0 8e 1a 3d ea 63 07 be 62 f0 bd 3b 84 81 bc 3c
       0.037733853 -0.13221708 0.005796478 0.023010977
000110 90 c7 83 3d e0 82 70 be a9 b5 b2 bd 4d 8c b6 bb
       0.06434548 -0.23487425 -0.08726055 -0.0055709244
000120 7b 68 5c 3e 0e bf d0 be 23 71 e0 3d 8e 3b 77 3d
       0.21524231 -0.40770763 0.10959079 0.06035953
000130 f2 84 62 3d a5 50 91 3d 50 49 06 3e 22 ce 35 be
       0.055302568 0.0709546 0.13113904 -0.17754415
000140 0b 14 04 3d 40 d5 ec be b4 0a 16 be ae 97 2a 2b
       0.032245677 -0.46256447 -0.1465252 6.060663e-13
000150 2f 72 e5 3d 83 69 61 3e 1b 0a 94 bd d0 d4 4f ab
       0.112034194 0.22012906 -0.0722849 -7.383651e-13
000160 96 58 0a 3e 6a 7d b2 3c 3e 1c 22 be 5e 60 5c bd
       0.13510355 0.021788318 -0.15831086 -0.05380284
000170 0c 81 d3 be 92 8c 8d 3e 3f 77 1b 3e e1 03 e2 be
       -0.41309392 0.2764631 0.15182208 -0.44143584
000180 65 47 a0 be 3e c3 17 3c 14 54 5f be d3 2f 33 be
       -0.3130447 0.009262858 -0.21809417 -0.17498712
000190 20 8f 8f be 22 2a 9f bb d1 d2 9c be 5d a2 c2 bd
       -0.28038883 -0.0048573175 -0.3062959 -0.095036246
0001a0 bc 57 98 3d dd b8 82 bd 4a e3 4d be 8e 1c 86 2b
       0.07438609 -0.06382916 -0.20106235 9.529198e-13
0001b0 9c a8 ce bd 37 31 41 bd 86 28 7d 3d 0a ef cb 2b
       -0.100907534 -0.047166076 0.061806224 1.4490364e-12
0001c0 ab cf d3 be 4e ae c4 bd 97 40 bf bd cb 63 71 3d
       -0.41369376 -0.096035585 -0.093384914 0.05893306
0001d0 98 8c 4b bc 42 21 26 3d df 03 28 be 70 86 11 bc
       -0.012423657 0.04055906 -0.16407727 -0.00888215
0001e0 88 cd 2f be 92 7f 84 bc 80 71 77 be 00 a5 58 be
       -0.17168248 -0.016174112 -0.2416439 -0.21156693
0001f0 15 b4 cf bc 52 dc cd bd 95 d1 80 bc 43 4c 10 be
       -0.025354424 -0.100517884 -0.015724937 -0.14091592
000200 8c b8 c5 bb 2f e0 eb bc 3e 6f 8a bd 88 a6 21 2a
       -0.0060339626 -0.028793423 -0.06759499 1.435745e-13
000210 8e ed ec bd cf e1 fd bc e2 42 23 bc d5 8a f8 29
       -0.115687475 -0.030991463 -0.009964677 1.1037496e-13
000220 1d 9e 7e be aa f6 2e be e7 43 a3 bc f1 da 78 bb
       -0.24865003 -0.17086282 -0.01992984 -0.0037972296
000230 33 5a c8 bb 66 aa 97 bd 3a 3a ad bc 09 34 f2 bb
       -0.006114268 -0.07405548 -0.021145929 -0.007391457
000240 23 22 36 3d 8b 24 4f 3e c7 4f dc 3d de ad 25 3d
       0.04446615 0.20228784 0.10757404 0.040449016
000250 0b 55 a9 be ce 60 ad 3e b2 bf 8c be dd c7 86 3d
       -0.33072695 0.3386292 -0.27490002 0.0658109
000260 f9 af 99 be 54 6e 5f 3e 3a 31 26 3d a7 f8 27 2b
       -0.3001707 0.2181943 0.04057429 5.9675393e-13
000270 d7 b0 13 bc 09 e0 04 bf 0c 01 70 be 5b 8f c8 2b
       -0.00901433 -0.5190435 -0.234379 1.4250644e-12
000280 d1 c4 19 3e f7 b9 0f 3e 89 59 35 3e ae 47 ca bd
       0.15016486 0.14035784 0.17709936 -0.09876953
000290 67 0f bc 3e 35 66 45 3e b1 f7 f0 be a7 1e 9e 3e
       0.367305 0.1927727 -0.47063974 0.3088276
0002a0 16 13 4e 3d 5f 9f 8d 3e 14 c4 0c 3e c7 44 bc 3d
       0.05031117 0.27660653 0.13746673 0.09192806
0002b0 13 9b 97 bd fb c5 c2 bc 91 6b 19 bd 60 92 0d 3e
       -0.07402625 -0.023776045 -0.0374561 0.13825369
0002c0 6f b4 ce be 73 e0 61 3e 0a ea 83 bd c2 07 90 ab
       -0.40372035 0.22058277 -0.06441124 -1.0233969e-12
0002d0 8e 01 1f 3e d6 e4 a9 be ec 30 8b be d5 0c 7b 2b
       0.15527937 -0.331824 -0.27185762 8.919092e-13
0002e0 d3 91 34 3d 35 32 b7 3d 32 a9 e2 3d 46 04 ac be
       0.04408438 0.08945123 0.11067428 -0.3359701
0002f0 87 cb 72 3e 45 a5 40 3e 4b 00 c7 bd c7 a7 61 3e
       0.23710452 0.18813045 -0.09716853 0.22036658
000300 a4 b9 50 bd a3 9b 4f bd 31 ca 1f bb 59 3a 39 bd
       -0.05095829 -0.050685536 -0.002438199 -0.04522166
000310 d9 df 07 bf 44 ff 0a be 91 5b 3a 3e b6 37 91 bd
       -0.5307594 -0.13573939 0.18198992 -0.07090704
000320 1e b9 06 bd e1 22 64 bd 0e ac 06 3b 80 0f 46 ab
       -0.032891385 -0.055697326 0.002054933 -7.036524e-13
000330 a8 3d 9c bd db de d6 bd ff cf dc 3c 56 ef bd a7
       -0.076289475 -0.10491725 0.026954649 -5.2717526e-15
000340 b3 83 7e bd 7e 21 1d 3e fb ae c8 3d 86 90 34 3d
       -0.062137317 0.15344808 0.09799 0.04408314
000350 ee cb a0 bd b9 2d d7 bd d4 c6 5a bd 7c 29 cd 3c
       -0.078513965 -0.10506768 -0.053412274 0.025044195
000360 10 b2 8c 3c d5 21 15 3e d3 87 7e 3d 31 58 67 3d
       0.01717475 0.14563687 0.06214125 0.05648059
000370 ee 13 bb be fe 15 1f 3e ad 84 ab be 83 d7 1b 3e
       -0.36538643 0.15535733 -0.3349966 0.1521893
000380 8a 9f ac 3d 17 eb 43 bd d9 c7 58 bc e0 16 6f ab
       0.08428867 -0.04783162 -0.013231241 -8.49416e-13
000390 93 bb 83 3d 8d 5d e1 3d 83 46 0c 3e bf cb de aa
       0.06432261 0.110041715 0.13698773 -3.95765e-13
0003a0 9e e0 16 3d 9b 1e 4e 3d 2d 96 4a bd 70 90 16 3e
       0.036835305 0.050322156 -0.049459625 0.14703536
0003b0 58 8b 7c bd cd 81 5a 3e e2 c9 9c be d9 5a bf bc
       -0.061656326 0.21338578 -0.30622774 -0.02335875
0003c0 fc 74 e0 3d 41 e5 7b 3d 46 e8 4f bc ab f5 b4 3d
       0.10959813 0.06149793 -0.012689656 0.0883592
0003d0 46 5d e4 3d 9b 0b 98 3d 13 a4 b8 bd ef 25 38 3d
       0.11150603 0.074240886 -0.0901567 0.04495805
0003e0 52 a9 54 3e f0 17 ba 3d 76 2f 35 3c 89 b7 8b 2a
       0.20767716 0.09086597 0.011058679 2.4818713e-13
0003f0 fc a3 c8 3d 9d 37 a8 3c 30 43 45 be da 6e b2 ab
       0.097969025 0.020534331 -0.19263911 -1.2678428e-12

770 f4 [24]
000000 60 b1 4c bf 10 81 a5 be 8c c7 05 3f 9d 93 43 be
       -0.7995815 -0.3232503 0.5225761 -0.19099279
000010 47 02 87 3f 34 99 a5 3f c1 e5 9c be d0 02 6d 3c
       1.054757 1.2937379 -0.30644038 0.014466003
000020 ea 56 1c 3f d8 ce 8c be 02 f9 da be 20 c4 b8 3e
       0.6107012 -0.2750156 -0.42768103 0.36087132
000030 eb f8 c8 3e ce 11 73 be 47 42 95 bf 3d 77 b8 3f
       0.3925241 -0.2373726 -1.1660851 1.4411389
000040 3d ab 6b 3e 7a d4 f5 bd dc c1 c5 be 7a 43 67 3e
       0.23014541 -0.12003417 -0.38624465 0.22584334
000050 f6 b1 06 be 98 a4 16 40 d6 20 fd 3e a0 02 2f 3c
       -0.13153824 2.353796 0.49439114 0.010681778

772 f4 [24, 1, 3, 3]
000000 41 ba 33 3e b4 83 c1 3f 25 19 2a bd 4c 85 2c bf
       0.17551519 1.5118318 -0.041527886 -0.67390895
000010 b1 fe 6a bd 82 0c 91 c0 de 50 8f be e7 be 18 40
       -0.0573718 -4.532777 -0.27991384 2.3866518
000020 b1 e9 d7 3f a3 83 db bd d7 d5 af be 0e 9f 8b be
       1.6868192 -0.10718467 -0.34342834 -0.27269787
000030 52 30 3c be e4 b7 10 bf 9c 59 eb be 9c 5e 8e bd
       -0.18377808 -0.56530595 -0.45966804 -0.06951639
000040 6e 44 7d be ba c2 2b be 79 92 9f 3d 24 0e 97 3d
       -0.24733135 -0.16773501 0.07791609 0.07375744
000050 56 52 d1 3e 34 71 0a 3f e7 28 26 3f d5 50 31 3f
       0.4088313 0.54078984 0.6490616 0.69263965
000060 a4 85 b2 3d 75 bc 34 3f 60 f0 66 3f b6 fd 38 3e
       0.08716896 0.7060006 0.90210533 0.18065533
000070 cd a1 b7 3e e2 24 d1 3e 85 eb ba 3e db e7 1b 3f
       0.35865632 0.40848452 0.36507812 0.6090066
000080 e8 62 e5 3e 52 a4 73 3e b1 9b f8 3e 96 37 8b 3e
       0.44802022 0.23793152 0.48556283 0.27190846
000090 ef a8 1f bd 36 49 c6 3f ba ff 92 bf 0f 65 b1 be
       -0.038979467 1.5491092 -1.1484292 -0.34647414
0000a0 e4 08 c4 3f e1 60 00 c0 96 21 da be 2a 13 bb 3f
       1.5315213 -2.005913 -0.4260375 1.4615223
0000b0 c3 6a 83 bf fd b0 42 3f 56 29 b0 bf 68 1f ce 3f
       -1.0266956 0.7605131 -1.3762615 1.6103334
0000c0 18 90 3e 3f 74 c1 93 c0 a5 e2 4a bd 2d 97 61 3f
       0.7443862 -4.617365 -0.04953255 0.881213
0000d0 d9 a6 9b bf 4b fa f9 3f 33 4c 20 be ac 02 a3 be
       -1.2160293 1.9529508 -0.15654068 -0.31837976
0000e0 14 3e 8d be f2 9b 98 be 09 46 b4 be f5 be d4 be
       -0.27586424 -0.29806477 -0.35209683 -0.4155194
0000f0 b5 39 54 be b5 9e 9f be a3 40 c8 be fb ec 11 be
       -0.20725138 -0.3117577 -0.39111814 -0.14250557
000100 2b f0 99 be 85 90 57 be 93 12 6d be 68 33 dd be
       -0.30066046 -0.21051224 -0.23151617 -0.43203282
000110 53 d0 cc be 6f 01 27 be 16 a3 7d be 78 fd a2 be
       -0.4000269 -0.1630914 -0.24769244 -0.31834006
000120 dd fc 3f be ab 09 69 3d e7 b9 36 be 9c 36 1a bf
       -0.18748803 0.056893986 -0.17844354 -0.6023958
000130 27 b7 5d bf ec 65 f7 be 51 79 33 bf 2a 83 7e bf
       -0.86607593 -0.48319948 -0.7010699 -0.9941889
000140 1c 9a 1c bf 45 1d 2b 3e 10 1b b4 3e 01 a3 57 3e
       -0.6117265 0.16710384 0.35176897 0.21058275
000150 ad ab 83 3e 2e 16 2b 3f 65 af ce 3e 72 64 10 3e
       0.25716916 0.6683072 0.4036819 0.14100817
000160 bc 45 bb 3e 63 fd 7f 3e bc e7 08 be ae 4d c2 be
       0.3657664 0.24999003 -0.1336965 -0.3794989
000170 80 62 e3 be ff a1 91 be ba ed 1f bf 8b 74 2b bf
       -0.44411087 -0.28443906 -0.62472117 -0.66974705
000180 5b 2f 50 be 92 af db be 99 00 9a be f0 06 88 3e
       -0.20330565 -0.42907387 -0.3007858 0.26567793
000190 0f 52 ff 3e 61 44 be 3e 5c 56 4f 3e 5e 1d 85 3f
       0.49867293 0.37161544 0.20247787 1.0399587
0001a0 fd 0c 6e 3f eb 07 e7 3e cb a2 54 3f f1 58 93 3e
       0.9298857 0.45123228 0.830609 0.28778794
0001b0 66 c3 c6 3e 26 b8 9d 3f ba ab 52 be 31 c1 46 3f
       0.38820952 1.2321823 -0.20573321 0.77638537
0001c0 52 b1 61 3f 4d 2a 56 bf e8 a0 31 3e b9 59 51 3e
       0.88161194 -0.83658296 0.17346537 0.20444383
0001d0 6a 81 da bf a0 98 1e 3e 45 1f 34 be 5f fd 8b be
       -1.7070744 0.1548791 -0.17590053 -0.27341744
0001e0 7a 5b f0 bd 8f 4f 31 bf d6 08 5e bf 61 89 f9 bd
       -0.11736198 -0.6926202 -0.8673223 -0.12184406
0001f0 c3 cd 3f bf 73 d1 5b bf 5c 74 86 bd e3 9d 6e be
       -0.7492334 -0.8586647 -0.065651625 -0.23302417
000200 a6 dd 76 be 28 99 d8 bd 01 d1 0d bf 3b 15 24 bf
       -0.2410799 -0.10576087 -0.5539704 -0.64094895
000210 b0 bc 92 bd 55 92 1e bf 36 6f 13 bf c3 c7 85 3e
       -0.071648955 -0.61942035 -0.5759157 0.2612897
000220 6c e6 0d 3f ea bb b6 3f 77 f6 18 bf eb 0d 71 c0
       0.5542972 1.4276097 -0.59751076 -3.7664745
000230 e3 08 51 c0 9a 1c 2f 3f 7a e3 ac 3f 71 02 26 40
       -3.2661674 0.6840302 1.350692 2.593899
000240 bd b1 62 3e af 77 74 3e 2d 51 77 3e 18 45 3f 3e
       0.22138114 0.2387378 0.2415206 0.18678701
000250 9e 4b d6 3e 74 21 91 3e 8e 86 35 3e 33 30 ab 3e
       0.41854566 0.28345835 0.1772711 0.3343521
000260 6e c6 99 3e 0c b1 74 be 5c e7 b0 be c7 7e 81 be
       0.30034202 -0.23895663 -0.34551513 -0.25292036
000270 c0 f7 ca be 6e 94 09 bf 05 64 f8 be 6d fa 64 be
       -0.39642143 -0.5374211 -0.4851381 -0.22361155
000280 37 b9 da be 5e f3 fb be 17 86 88 3e dd 5d 70 3e
       -0.42719433 -0.49209112 0.26664802 0.23473306
000290 ab 44 01 bf 36 0f c0 be 8d 31 1d bf 45 7c d8 bf
       -0.50495404 -0.37511605 -0.61403733 -1.6912924
0002a0 4d 14 a1 be 95 5c 1c c0 88 06 68 c0 fc d5 5a be
       -0.314608 -2.4431508 -3.6253986 -0.21370691
0002b0 b5 51 1b bf da ca 67 bf c3 9c f4 be 6f a7 93 bf
       -0.6067155 -0.905439 -0.4777585 -1.1535472
0002c0 84 46 90 bf 41 27 77 be 1f 36 73 bf 2e 17 49 bf
       -1.127152 -0.24136068 -0.9500446 -0.78550994
0002d0 8a e9 d9 bd 82 23 94 be df 2f 98 be db 78 29 be
       -0.10640247 -0.2893334 -0.29724023 -0.16550009
0002e0 75 3c e2 be 4c 43 f6 be 65 b1 1f be d4 69 b6 be
       -0.4418675 -0.48098218 -0.15595014 -0.35627615
0002f0 cb 66 ab be 73 69 43 be 90 7c eb bd e8 be 8f be
       -0.33476862 -0.19083194 -0.11498368 -0.28075337
000300 99 4b fb bd 70 ec c6 be 94 ce 28 bf 50 3d d7 bd
       -0.122702785 -0.38852262 -0.65940213 -0.10509741
000310 65 d3 ec be 71 34 76 bf 85 cd 33 bf e4 25 2f c0
       -0.4625503 -0.9617377 -0.7023547 -2.7366877
000320 3a 70 0f c0 2d 57 5d bd 66 3b e9 be c4 6b a5 be
       -2.2412248 -0.054038215 -0.4555313 -0.3230878
000330 a6 a1 8a 3f 60 ab 5f 40 c3 e5 3a 40 55 aa 18 3e
       1.0830581 3.494835 2.9202735 0.14908727
000340 a7 37 9a bd 22 93 a7 bd 78 2c 15 3e 33 dd 4e 3f
       -0.07530146 -0.0818236 0.14567745 0.80806273
000350 d4 3a 31 3f 9f dc d0 3c 29 d8 90 3f 19 d6 a3 3f
       0.6923039 0.025495825 1.1315967 1.2799712

773 f4 [24]
000000 fe 56 75 bc dd fa f6 3e 2e 94 b7 be c9 d2 49 be
       -0.014974354 0.48238268 -0.3585524 -0.19709314
000010 55 e5 63 3d e4 ee 0b 3f b1 38 c8 3e 13 f4 0d 3f
       0.05563863 0.54661393 0.39105752 0.5545055
000020 4a 5d d5 3e c9 8a 07 bf d4 28 1b 3e 47 3f 67 be
       0.41672736 -0.52946144 0.15152293 -0.22582732
000030 f1 1d 7b be cc 2b 86 3e 20 50 80 3e d0 2d 2c 3d
       -0.2452314 0.2620529 0.2506113 0.042035878
000040 a0 09 1f bf a7 3d 48 3e 66 e3 74 3f 49 08 8b 3e
       -0.6212406 0.19554769 0.9565948 0.2715476
000050 ee f5 c1 3e 5b 47 08 3f 43 8a bd be 81 ea 98 be
       0.37882942 0.5323388 -0.37019548 -0.29866412

775 f4 [24, 24, 1, 1]
000000 97 72 de 3a 21 b3 e6 bc dc 6d 06 3d e0 90 2d 3d
       0.0016971406 -0.028161587 0.032819614 0.04237449
000010 29 4d 38 bb ba d8 b7 bc cc 54 cf bc 80 91 1e bd
       -0.0028122163 -0.02244221 -0.025308989 -0.03871298
000020 4d 79 48 bc 98 07 a9 3d 93 ad ef 3d fc f4 04 bd
       -0.012235952 0.082534015 0.117030285 -0.032460198
000030 46 b2 17 bc 0b 36 8f bd 2a 67 6f bc d0 94 2d bc
       -0.009258812 -0.0699273 -0.014611999 -0.010594562
000040 2d 6f 0f 3d 58 90 01 bd 08 83 24 3e c5 bd 94 bd
       0.035018135 -0.031631798 0.1606561 -0.07262758
000050 e3 1e 13 bd da 6b 2f bd 0a a1 06 3d 53 d3 2f 3d
       -0.035918128 -0.042827465 0.032868423 0.042926144
000060 11 1b ba bb d3 b2 fc ba dc 2b 32 bc 41 2c 98 bb
       -0.005679496 -0.0019279368 -0.010874715 -0.0046439474
000070 16 ea 1a 3c 30 5b f2 3b cb 16 b2 3c f7 dd 47 bc
       0.0094552245 0.0073961243 0.021739384 -0.012198917
000080 66 e3 64 3d 8b e9 01 bd 92 89 de 3d eb e2 ce 3d
       0.055880927 -0.031716865 0.10866083 0.10101875
000090 f9 19 8b 3c 49 16 89 3d 16 48 50 bd f1 5c e2 bb
       0.016980158 0.06693704 -0.050849997 -0.006908052
0000a0 f8 92 8c bc c4 2a e0 bc 88 ac 85 bd a1 05 a5 3d
       -0.017159924 -0.027364142 -0.06527048 0.08057714
0000b0 8d 96 a6 3d fd 80 05 3d d7 b6 d6 be 42 1a 81 bc
       0.08134184 0.032593716 -0.4193637 -0.015759591
0000c0 d7 30 6c be 49 61 de 3b 6b 84 84 3e a4 ee 12 3c
       -0.23065506 0.0067864996 0.25882277 0.008968029
0000d0 52 0c 59 3e 1c f7 af be d2 d1 0f 3e 17 9e 03 3c
       0.21196106 -0.34368217 0.14044884 0.008033297
0000e0 18 69 6b be 5a e3 ee bd b4 fa ad 3d 32 93 f4 bd
       -0.22989309 -0.116644576 0.084950835 -0.11942138
0000f0 54 16 12 3d 04 74 c1 3d 11 47 eb 3c 6c 56 76 bd
       0.035665825 0.09445956 0.02872041 -0.060141012
000100 0a 66 0c 3c bd f1 b4 3c 75 5c 8c bd 5a fa ad bb
       0.00856925 0.022087926 -0.06853572 -0.0053093852
000110 f1 1d f5 3d 6a c1 d9 3d ee a9 55 3d f7 a6 4d 3d
       0.119686015 0.10632594 0.05216401 0.05020806
000120 d5 c7 6f 3d df 39 83 3c bf d4 da 3d 88 ea 93 bc
       0.058540184 0.016018806 0.10685109 -0.01805617
000130 4d 82 9b 3b 33 60 cc bc e9 60 e7 bd b5 f0 95 3d
       0.0047457577 -0.024948215 -0.11297781 0.07321302
000140 b3 f8 86 be 31 65 83 3e fc b4 52 3e 3f 56 d8 3b
       -0.26361617 0.2566314 0.20576853 0.006602078
000150 37 4d da bc 41 04 26 be b2 23 a8 bd 2d b7 00 3d
       -0.026648147 -0.1621256 -0.08209933 0.03142469
000160 97 50 f3 bd 26 f4 70 bd 1f 7b f5 3d a6 c9 1d be
       -0.11880606 -0.058826588 0.11986374 -0.15408954
000170 4a 2b cb be 6e da b8 3d e8 26 18 3e 6c 5c de 3d
       -0.39681464 0.09026037 0.14858592 0.10857472
000180 1d 3b 09 bc 07 7c 23 3e 97 37 71 3c 59 03 6a 3e
       -0.00837591 0.15965281 0.014722726 0.2285284
000190 d0 ab 91 bc 5c 8e 13 3b 1e ff 8d 3e ce a4 74 3e
       -0.017782122 0.0022515273 0.277337 0.23890993
0001a0 dc 7c bc bb 1c 6a 1e 3e f0 61 f4 bc b9 eb 16 3b
       -0.005752189 0.15470165 -0.029831856 0.0023028685
0001b0 57 24 78 be 20 ee e4 bd e3 d8 01 bd 23 90 a9 bb
       -0.24232613 -0.11178231 -0.03170098 -0.005174653
0001c0 63 df 7f 3e 40 0f 9b 3e 18 32 dc bc b9 16 80 3d
       0.24987559 0.30285072 -0.026879355 0.06254334
0001d0 bc 09 73 be 19 59 00 3d 81 51 03 bd 72 62 0a bd
       -0.23734182 0.03133497 -0.03206015 -0.03378529
0001e0 cb 19 11 3d 47 39 a8 3e 8a ea 8b bd 37 c6 c9 3b
       0.03542499 0.328562 -0.06831844 0.0061576623
0001f0 4f af 7b 3c 54 24 b9 3d a1 7f aa bc 75 47 83 3e
       0.015361621 0.09040132 -0.020812811 0.25640455
000200 b2 5b b3 3d 28 58 f4 3d 34 75 c3 3e 3c 83 59 be
       0.08757724 0.11930877 0.38175356 -0.21241468
000210 74 28 13 3d 10 d2 e5 bb 09 2c 79 bc dd 9f 13 3d
       0.03592725 -0.007013567 -0.015208253 0.03604113
000220 08 48 04 be 86 55 b4 3d fa b3 92 bb b5 f0 1b bd
       -0.12918103 0.08805375 -0.0044770213 -0.038071353
000230 8d 73 1c be f5 41 fb bd 15 47 37 3e 13 43 34 bc
       -0.15278454 -0.1226844 0.1789821 -0.01100232
000240 92 6c b4 3e cd 5f ef 3d c5 3a 0a 3e 95 b2 18 bd
       0.35239083 0.116881944 0.13498981 -0.037279684
000250 f4 63 2e be 7a 82 6c bc 54 fa 9b 3b c6 ed f3 3d
       -0.17030317 -0.014435405 0.004760066 0.11910586
000260 1c 63 f1 bd 53 4e ed 3c 43 bd f3 3c 96 93 cf 3c
       -0.11786482 0.028968012 0.029753333 0.02533893
000270 a5 31 89 3c 47 4e 9d bd 0d 34 8b 3c 4d 11 17 be
       0.016747305 -0.07680946 0.016992593 -0.14752693
000280 ce 30 bd bc a0 be 5b 3d e9 a9 1a 3e bb 9e e8 bd
       -0.023094561 0.05364859 0.15103878 -0.113584004
000290 fb 5c de 3c 9b e2 3e 3d ee 1f 17 3b 99 e3 ec bc
       0.027143946 0.046602827 0.0023059803 -0.02891712
0002a0 33 c1 49 be e5 aa ca 3d 87 47 7c 3c 9e 74 e9 bb
       -0.19702606 0.09895877 0.015397913 -0.0071244976
0002b0 48 9d b9 3d b9 3b 34 3e b8 42 09 3d 28 1e 52 3d
       0.09063202 0.17600907 0.033510894 0.05129829
0002c0 f1 5d 13 bd 11 91 13 bd a3 6e 52 be 22 c7 40 3e
       -0.03597826 -0.036027018 -0.20550017 0.18825963
0002d0 87 db d9 3c 9e b1 92 3d 40 ad 00 bd 2c 9e bc 3e
       0.026593937 0.07162784 -0.031415224 0.36839426
0002e0 27 da 05 bd f5 78 3b 3d 68 2d 8d 3b 08 50 0c be
       -0.03267875 0.04576965 0.0043083914 -0.13702404
0002f0 32 b3 53 bd 67 72 47 3d e6 30 d9 bc dc 06 c8 bd
       -0.051684566 0.048693087 -0.026512574 -0.09766933
000300 78 81 b5 3c 77 fc af 3c 1b 6a 1e bc e9 63 b9 3e
       0.022156462 0.02148269 -0.009668852 0.36209038
000310 d9 b7 aa bc 50 ea 23 bc 60 6a aa 3e ec 62 e5 3e
       -0.020839619 -0.010004595 0.33284283 0.44802034
000320 eb 24 32 3d 7a e3 86 bc 03 d8 82 3d 19 0d c6 bd
       0.04349224 -0.016465891 0.06388857 -0.09670467
000330 76 f8 2b 3d 27 0a 07 bd b5 db d7 bc c8 15 0d bc
       0.041984998 -0.032968666 -0.026349882 -0.00861115
000340 39 33 ee 3e 7f c4 d5 3e 30 05 9d bb 2b 75 dd 3c
       0.46523455 0.41751477 -0.004791878 0.02703341
000350 2c ef 67 be e5 73 08 bb 72 69 88 3c 4b 60 80 bd
       -0.2264983 -0.0020821032 0.016651843 -0.062683664
000360 b2 9f a9 3d 25 74 f3 3d ba 6e 78 bd 60 9d 9d 3d
       0.082824126 0.11887387 -0.060652472 0.076960325
000370 7a b1 03 bd ee 60 4e 3c b1 ed 03 3d fa 41 77 bd
       -0.032151677 0.012596352 0.032209102 -0.060365655
000380 09 c2 62 bd 50 13 3b 3e ca 01 91 bd b3 01 7b bd
       -0.055360828 0.18269086 -0.07080419 -0.061280917
000390 e3 d7 c1 3c 03 78 03 bd 9c c6 5d be ec 7a e8 bc
       0.023662513 -0.032096874 -0.21657795 -0.028378926
0003a0 3a e0 8c 3d 5d e4 36 bd 31 9c 23 3d 37 fc 5f bc
       0.06878705 -0.044651378 0.039943878 -0.013670973
0003b0 d2 c9 8c 3d 7a fe 01 3e 53 af 51 bd 64 58 c8 bd
       0.06874432 0.12694731 -0.051192593 -0.09782484
0003c0 5d 8f 89 bd 8c 23 a4 bd 68 1e a2 3c 32 13 8a 3c
       -0.067167975 -0.080145925 0.01978989 0.016854856
0003d0 02 33 1d 3c 45 3c ae bc ee ad 99 bd 94 c0 3c bc
       0.009594681 -0.021268973 -0.075038776 -0.011520524
0003e0 77 e3 64 bc c5 77 8a 3d 23 90 bb 3b eb ca 31 3c
       -0.0139702475 0.067611255 0.0057239695 0.010851602
0003f0 c1 78 96 bc 68 46 b5 bd d6 05 c4 bd 32 34 47 3d
       -0.018368127 -0.088513196 -0.095714256 0.04863376

776 f4 [24]
000000 31 92 df 3e 77 d2 45 3e 9f 7f 31 3e d4 e4 e9 bd
       0.43666223 0.19318567 0.1733384 -0.114205986
000010 4e 84 2a 3f ff aa b9 3e 9d 00 93 3e 78 b5 aa 3d
       0.6660813 0.36263272 0.28711405 0.08335394
000020 5f fc 1c bd 84 a6 a0 3e cf bd 36 3f b6 31 9c bc
       -0.038326617 0.3137704 0.71383375 -0.019066673
000030 66 73 2e 3f d3 14 8b 3d fc 2f f1 3e c9 9e 55 3e
       0.68144834 0.06791081 0.47106922 0.20861353
000040 6b d0 82 3e fb 5c 68 be c9 52 ac 3e 06 65 8b 3e
       0.25549635 -0.22691719 0.3365691 0.27225512
000050 2f d2 0d 3f 59 56 b3 3d df b8 41 3d c7 3b 06 3e
       0.5539884 0.08756704 0.047295447 0.13108741
